node {
  name: "load_images/input_producer/Const"
  op: "Const"
  attr {
    key: "_output_shapes"
    value {
      list {
        shape {
          dim {
            size: 1586
          }
        }
      }
    }
  }
  attr {
    key: "dtype"
    value {
      type: DT_STRING
    }
  }
  attr {
    key: "value"
    value {
      tensor {
        dtype: DT_STRING
        tensor_shape {
          dim {
            size: 1586
          }
        }
        string_val: "test\\10_10_high_canal.png"
        string_val: "test\\10_11_low_iceberg.png"
        string_val: "test\\10_12_low_conferenceroom.png"
        string_val: "test\\10_13_low_garden.png"
        string_val: "test\\10_14_high_livingroom.png"
        string_val: "test\\10_15_high_lighthouse.png"
        string_val: "test\\10_17_high_buildingfacade.png"
        string_val: "test\\10_18_low_castle.png"
        string_val: "test\\10_1_high_bridge.png"
        string_val: "test\\10_3_high_golfcourse.png"
        string_val: "test\\10_4_low_skyscraper.png"
        string_val: "test\\10_5_high_pool.png"
        string_val: "test\\10_6_low_diningroom.png"
        string_val: "test\\10_7_high_badlands.png"
        string_val: "test\\10_8_low_lake.png"
        string_val: "test\\10_9_high_stadium.png"
        string_val: "test\\11_11_low_farm.png"
        string_val: "test\\11_12_high_golfcourse.png"
        string_val: "test\\11_13_low_lake.png"
        string_val: "test\\11_14_low_skyscraper.png"
        string_val: "test\\11_15_high_canal.png"
        string_val: "test\\11_1_high_lighthouse.png"
        string_val: "test\\11_3_high_street.png"
        string_val: "test\\11_4_high_airportterminal.png"
        string_val: "test\\11_5_low_iceberg.png"
        string_val: "test\\11_6_high_castle.png"
        string_val: "test\\11_7_low_playground.png"
        string_val: "test\\11_8_low_buildingfacade.png"
        string_val: "test\\11_9_high_kitchen.png"
        string_val: "test\\12_1_low_castle.png"
        string_val: "test\\12_2_low_stadium.png"
        string_val: "test\\12_3_high_dam.png"
        string_val: "test\\12_4_high_pool.png"
        string_val: "test\\12_5_high_iceberg.png"
        string_val: "test\\12_6_high_bedroom.png"
        string_val: "test\\12_7_high_house.png"
        string_val: "test\\12_8_low_factory.png"
        string_val: "test\\13_1_low_bedroom.png"
        string_val: "test\\13_2_high_iceberg.png"
        string_val: "test\\13_3_low_airportterminal.png"
        string_val: "test\\13_4_high_kitchen.png"
        string_val: "test\\13_5_low_dam.png"
        string_val: "test\\13_6_low_house.png"
        string_val: "test\\13_7_high_diningroom.png"
        string_val: "test\\13_8_low_skyscraper.png"
        string_val: "test\\13_9_low_buildingfacade.png"
        string_val: "test\\14_10_high_bedroom.png"
        string_val: "test\\14_11_high_golfcourse.png"
        string_val: "test\\14_12_high_house.png"
        string_val: "test\\14_1_high_buildingfacade.png"
        string_val: "test\\14_2_low_canal.png"
        string_val: "test\\14_3_low_tower.png"
        string_val: "test\\14_4_high_fountain.png"
        string_val: "test\\14_5_high_street.png"
        string_val: "test\\14_6_low_kitchen.png"
        string_val: "test\\14_7_low_mountain.png"
        string_val: "test\\14_8_high_skyscraper.png"
        string_val: "test\\14_9_low_conferenceroom.png"
        string_val: "test\\15_10_high_street.png"
        string_val: "test\\15_11_high_stadium.png"
        string_val: "test\\15_12_high_badlands.png"
        string_val: "test\\15_13_low_lake.png"
        string_val: "test\\15_14_low_factory.png"
        string_val: "test\\15_15_high_conferenceroom.png"
        string_val: "test\\15_16_high_bedroom.png"
        string_val: "test\\15_18_high_livingroom.png"
        string_val: "test\\15_19_low_fountain.png"
        string_val: "test\\15_1_low_mountain.png"
        string_val: "test\\15_20_low_castle.png"
        string_val: "test\\15_21_low_dam.png"
        string_val: "test\\15_22_low_buildingfacade.png"
        string_val: "test\\15_2_low_bathroom.png"
        string_val: "test\\15_3_high_house.png"
        string_val: "test\\15_4_low_bridge.png"
        string_val: "test\\15_5_low_diningroom.png"
        string_val: "test\\15_6_low_skyscraper.png"
        string_val: "test\\15_9_high_farm.png"
        string_val: "test\\16_10_high_lighthouse.png"
        string_val: "test\\16_11_high_bridge.png"
        string_val: "test\\16_12_low_conferenceroom.png"
        string_val: "test\\16_13_high_canal.png"
        string_val: "test\\16_1_high_mountain.png"
        string_val: "test\\16_3_low_amusementpark.png"
        string_val: "test\\16_4_low_playground.png"
        string_val: "test\\16_5_low_street.png"
        string_val: "test\\16_6_high_fountain.png"
        string_val: "test\\16_7_high_diningroom.png"
        string_val: "test\\16_8_high_lake.png"
        string_val: "test\\16_9_high_kitchen.png"
        string_val: "test\\17_10_low_house.png"
        string_val: "test\\17_11_high_skyscraper.png"
        string_val: "test\\17_12_high_amusementpark.png"
        string_val: "test\\17_1_high_playground.png"
        string_val: "test\\17_2_high_mountain.png"
        string_val: "test\\17_3_high_airportterminal.png"
        string_val: "test\\17_4_high_kitchen.png"
        string_val: "test\\17_5_low_bedroom.png"
        string_val: "test\\17_6_high_diningroom.png"
        string_val: "test\\17_7_high_castle.png"
        string_val: "test\\17_8_low_fountain.png"
        string_val: "test\\17_9_high_conferenceroom.png"
        string_val: "test\\18_10_low_factory.png"
        string_val: "test\\18_1_high_bridge.png"
        string_val: "test\\18_2_high_canal.png"
        string_val: "test\\18_4_high_pool.png"
        string_val: "test\\18_5_high_bedroom.png"
        string_val: "test\\18_6_low_airportterminal.png"
        string_val: "test\\18_7_high_livingroom.png"
        string_val: "test\\18_9_low_bathroom.png"
        string_val: "test\\20_10_high_street.png"
        string_val: "test\\20_11_low_badlands.png"
        string_val: "test\\20_12_high_house.png"
        string_val: "test\\20_13_high_farm.png"
        string_val: "test\\20_14_high_conferenceroom.png"
        string_val: "test\\20_1_high_skyscraper.png"
        string_val: "test\\20_2_high_diningroom.png"
        string_val: "test\\20_3_high_castle.png"
        string_val: "test\\20_4_low_factory.png"
        string_val: "test\\20_5_high_garden.png"
        string_val: "test\\20_6_low_bridge.png"
        string_val: "test\\20_7_low_fountain.png"
        string_val: "test\\20_8_low_stadium.png"
        string_val: "test\\20_9_low_buildingfacade.png"
        string_val: "test\\21_12_low_buildingfacade.png"
        string_val: "test\\21_14_high_amusementpark.png"
        string_val: "test\\21_1_high_street.png"
        string_val: "test\\21_2_high_bridge.png"
        string_val: "test\\21_3_high_factory.png"
        string_val: "test\\21_4_high_skyscraper.png"
        string_val: "test\\21_5_low_diningroom.png"
        string_val: "test\\21_7_low_lighthouse.png"
        string_val: "test\\21_8_high_lake.png"
        string_val: "test\\21_9_high_mountain.png"
        string_val: "test\\22_10_low_iceberg.png"
        string_val: "test\\22_11_low_skyscraper.png"
        string_val: "test\\22_12_low_dam.png"
        string_val: "test\\22_13_high_pool.png"
        string_val: "test\\22_14_high_fountain.png"
        string_val: "test\\22_15_high_garden.png"
        string_val: "test\\22_16_high_house.png"
        string_val: "test\\22_17_high_farm.png"
        string_val: "test\\22_18_high_tower.png"
        string_val: "test\\22_1_high_lighthouse.png"
        string_val: "test\\22_20_low_factory.png"
        string_val: "test\\22_2_low_canal.png"
        string_val: "test\\22_3_high_diningroom.png"
        string_val: "test\\22_4_high_badlands.png"
        string_val: "test\\22_5_low_mountain.png"
        string_val: "test\\22_6_low_street.png"
        string_val: "test\\22_7_high_livingroom.png"
        string_val: "test\\22_8_low_conferenceroom.png"
        string_val: "test\\22_9_low_lake.png"
        string_val: "test\\23_10_low_fountain.png"
        string_val: "test\\23_12_low_pool.png"
        string_val: "test\\23_13_low_street.png"
        string_val: "test\\23_1_high_kitchen.png"
        string_val: "test\\23_2_high_mountain.png"
        string_val: "test\\23_3_high_factory.png"
        string_val: "test\\23_4_high_castle.png"
        string_val: "test\\23_5_low_bridge.png"
        string_val: "test\\23_6_high_playground.png"
        string_val: "test\\23_7_low_house.png"
        string_val: "test\\23_8_high_skyscraper.png"
        string_val: "test\\23_9_low_buildingfacade.png"
        string_val: "test\\24_1_high_bridge.png"
        string_val: "test\\24_2_high_fountain.png"
        string_val: "test\\24_3_low_mountain.png"
        string_val: "test\\24_4_high_golfcourse.png"
        string_val: "test\\24_5_high_dam.png"
        string_val: "test\\24_6_low_garden.png"
        string_val: "test\\24_7_low_iceberg.png"
        string_val: "test\\24_8_high_bedroom.png"
        string_val: "test\\24_9_low_amusementpark.png"
        string_val: "test\\25_10_high_buildingfacade.png"
        string_val: "test\\25_12_low_mountain.png"
        string_val: "test\\25_13_high_amusementpark.png"
        string_val: "test\\25_14_low_street.png"
        string_val: "test\\25_16_high_playground.png"
        string_val: "test\\25_1_high_skyscraper.png"
        string_val: "test\\25_2_high_pool.png"
        string_val: "test\\25_3_low_farm.png"
        string_val: "test\\25_4_high_canal.png"
        string_val: "test\\25_5_low_diningroom.png"
        string_val: "test\\25_6_high_garden.png"
        string_val: "test\\25_7_high_bedroom.png"
        string_val: "test\\25_9_high_castle.png"
        string_val: "test\\26_10_high_house.png"
        string_val: "test\\26_11_high_conferenceroom.png"
        string_val: "test\\26_12_high_fountain.png"
        string_val: "test\\26_13_high_badlands.png"
        string_val: "test\\26_14_high_mountain.png"
        string_val: "test\\26_15_high_street.png"
        string_val: "test\\26_16_low_factory.png"
        string_val: "test\\26_17_low_amusementpark.png"
        string_val: "test\\26_18_high_tower.png"
        string_val: "test\\26_19_low_castle.png"
        string_val: "test\\26_20_high_diningroom.png"
        string_val: "test\\26_2_low_garden.png"
        string_val: "test\\26_3_high_golfcourse.png"
        string_val: "test\\26_4_low_pool.png"
        string_val: "test\\26_5_high_farm.png"
        string_val: "test\\26_6_low_buildingfacade.png"
        string_val: "test\\26_7_low_iceberg.png"
        string_val: "test\\26_8_high_livingroom.png"
        string_val: "test\\26_9_low_kitchen.png"
        string_val: "test\\27_10_low_street.png"
        string_val: "test\\27_11_high_mountain.png"
        string_val: "test\\27_12_low_badlands.png"
        string_val: "test\\27_13_high_tower.png"
        string_val: "test\\27_14_low_castle.png"
        string_val: "test\\27_1_high_bridge.png"
        string_val: "test\\27_2_high_pool.png"
        string_val: "test\\27_3_low_bedroom.png"
        string_val: "test\\27_4_low_garden.png"
        string_val: "test\\27_5_low_kitchen.png"
        string_val: "test\\27_6_high_house.png"
        string_val: "test\\27_7_high_farm.png"
        string_val: "test\\27_8_high_fountain.png"
        string_val: "test\\27_9_low_skyscraper.png"
        string_val: "test\\28_1_high_street.png"
        string_val: "test\\28_2_low_bridge.png"
        string_val: "test\\28_4_high_bedroom.png"
        string_val: "test\\28_5_low_fountain.png"
        string_val: "test\\28_6_low_amusementpark.png"
        string_val: "test\\28_7_high_canal.png"
        string_val: "test\\28_8_low_tower.png"
        string_val: "test\\29_1_low_bedroom.png"
        string_val: "test\\29_2_high_playground.png"
        string_val: "test\\29_3_high_skyscraper.png"
        string_val: "test\\29_4_high_bathroom.png"
        string_val: "test\\29_5_low_bridge.png"
        string_val: "test\\29_6_low_dam.png"
        string_val: "test\\29_7_low_badlands.png"
        string_val: "test\\30_10_low_amusementpark.png"
        string_val: "test\\30_11_low_farm.png"
        string_val: "test\\30_12_low_conferenceroom.png"
        string_val: "test\\30_13_low_castle.png"
        string_val: "test\\30_1_high_bridge.png"
        string_val: "test\\30_2_high_fountain.png"
        string_val: "test\\30_3_high_golfcourse.png"
        string_val: "test\\30_4_high_canal.png"
        string_val: "test\\30_5_high_bedroom.png"
        string_val: "test\\30_6_low_kitchen.png"
        string_val: "test\\30_7_high_badlands.png"
        string_val: "test\\30_8_low_garden.png"
        string_val: "test\\30_9_high_dam.png"
        string_val: "test\\31_10_high_factory.png"
        string_val: "test\\31_11_low_bridge.png"
        string_val: "test\\31_1_low_fountain.png"
        string_val: "test\\31_2_low_golfcourse.png"
        string_val: "test\\31_3_high_garden.png"
        string_val: "test\\31_4_low_pool.png"
        string_val: "test\\31_5_high_farm.png"
        string_val: "test\\31_6_low_street.png"
        string_val: "test\\31_7_low_house.png"
        string_val: "test\\31_8_high_iceberg.png"
        string_val: "test\\31_9_low_canal.png"
        string_val: "test\\33_10_high_bridge.png"
        string_val: "test\\33_1_low_bathroom.png"
        string_val: "test\\33_2_high_airportterminal.png"
        string_val: "test\\33_3_low_house.png"
        string_val: "test\\33_4_high_canal.png"
        string_val: "test\\33_5_high_badlands.png"
        string_val: "test\\33_6_low_conferenceroom.png"
        string_val: "test\\33_7_low_lake.png"
        string_val: "test\\33_8_high_diningroom.png"
        string_val: "test\\33_9_low_street.png"
        string_val: "test\\34_10_high_livingroom.png"
        string_val: "test\\34_11_low_iceberg.png"
        string_val: "test\\34_12_high_badlands.png"
        string_val: "test\\34_13_low_castle.png"
        string_val: "test\\34_1_high_golfcourse.png"
        string_val: "test\\34_2_low_pool.png"
        string_val: "test\\34_3_low_skyscraper.png"
        string_val: "test\\34_4_high_lighthouse.png"
        string_val: "test\\34_5_low_house.png"
        string_val: "test\\34_6_low_farm.png"
        string_val: "test\\34_7_low_conferenceroom.png"
        string_val: "test\\34_8_low_diningroom.png"
        string_val: "test\\34_9_low_street.png"
        string_val: "test\\35_10_low_playground.png"
        string_val: "test\\35_11_low_lake.png"
        string_val: "test\\35_12_low_airportterminal.png"
        string_val: "test\\35_13_low_amusementpark.png"
        string_val: "test\\35_14_high_bedroom.png"
        string_val: "test\\35_1_low_skyscraper.png"
        string_val: "test\\35_2_high_pool.png"
        string_val: "test\\35_3_high_bridge.png"
        string_val: "test\\35_4_high_street.png"
        string_val: "test\\35_5_high_dam.png"
        string_val: "test\\35_6_high_badlands.png"
        string_val: "test\\35_7_high_livingroom.png"
        string_val: "test\\35_8_low_farm.png"
        string_val: "test\\35_9_low_mountain.png"
        string_val: "test\\3_10_high_street.png"
        string_val: "test\\3_1_low_tower.png"
        string_val: "test\\3_2_high_playground.png"
        string_val: "test\\3_3_high_lighthouse.png"
        string_val: "test\\3_4_low_bathroom.png"
        string_val: "test\\3_5_high_mountain.png"
        string_val: "test\\3_6_high_golfcourse.png"
        string_val: "test\\3_7_low_bridge.png"
        string_val: "test\\3_8_high_farm.png"
        string_val: "test\\3_9_high_conferenceroom.png"
        string_val: "test\\4_10_high_kitchen.png"
        string_val: "test\\4_11_low_lake.png"
        string_val: "test\\4_12_low_garden.png"
        string_val: "test\\4_13_high_iceberg.png"
        string_val: "test\\4_15_high_livingroom.png"
        string_val: "test\\4_16_high_buildingfacade.png"
        string_val: "test\\4_17_low_street.png"
        string_val: "test\\4_19_high_diningroom.png"
        string_val: "test\\4_1_high_tower.png"
        string_val: "test\\4_20_low_castle.png"
        string_val: "test\\4_21_high_pool.png"
        string_val: "test\\4_22_high_fountain.png"
        string_val: "test\\4_3_low_mountain.png"
        string_val: "test\\4_4_high_airportterminal.png"
        string_val: "test\\4_5_low_playground.png"
        string_val: "test\\4_6_high_bridge.png"
        string_val: "test\\4_7_high_bathroom.png"
        string_val: "test\\4_8_low_bedroom.png"
        string_val: "test\\4_9_low_golfcourse.png"
        string_val: "test\\6_10_high_playground.png"
        string_val: "test\\6_11_low_diningroom.png"
        string_val: "test\\6_12_low_farm.png"
        string_val: "test\\6_13_high_street.png"
        string_val: "test\\6_1_low_canal.png"
        string_val: "test\\6_2_low_badlands.png"
        string_val: "test\\6_3_low_tower.png"
        string_val: "test\\6_4_high_skyscraper.png"
        string_val: "test\\6_5_high_dam.png"
        string_val: "test\\6_6_high_conferenceroom.png"
        string_val: "test\\6_7_high_livingroom.png"
        string_val: "test\\6_8_low_mountain.png"
        string_val: "test\\6_9_low_iceberg.png"
        string_val: "test\\7_10_low_bedroom.png"
        string_val: "test\\7_11_low_livingroom.png"
        string_val: "test\\7_12_low_lighthouse.png"
        string_val: "test\\7_13_high_playground.png"
        string_val: "test\\7_14_high_mountain.png"
        string_val: "test\\7_15_low_stadium.png"
        string_val: "test\\7_16_high_garden.png"
        string_val: "test\\7_17_low_house.png"
        string_val: "test\\7_18_low_buildingfacade.png"
        string_val: "test\\7_19_high_bathroom.png"
        string_val: "test\\7_1_low_bridge.png"
        string_val: "test\\7_20_high_iceberg.png"
        string_val: "test\\7_2_high_factory.png"
        string_val: "test\\7_3_high_airportterminal.png"
        string_val: "test\\7_4_high_diningroom.png"
        string_val: "test\\7_5_low_pool.png"
        string_val: "test\\7_6_low_canal.png"
        string_val: "test\\7_7_low_golfcourse.png"
        string_val: "test\\7_8_low_street.png"
        string_val: "test\\7_9_low_badlands.png"
        string_val: "test\\8_10_high_buildingfacade.png"
        string_val: "test\\8_11_high_bridge.png"
        string_val: "test\\8_12_low_lake.png"
        string_val: "test\\8_13_low_castle.png"
        string_val: "test\\8_1_high_fountain.png"
        string_val: "test\\8_2_high_stadium.png"
        string_val: "test\\8_3_high_livingroom.png"
        string_val: "test\\8_4_high_badlands.png"
        string_val: "test\\8_5_low_iceberg.png"
        string_val: "test\\8_6_high_tower.png"
        string_val: "test\\8_7_high_pool.png"
        string_val: "test\\8_8_low_garden.png"
        string_val: "test\\8_9_high_street.png"
        string_val: "test\\9_1_high_diningroom.png"
        string_val: "test\\9_2_low_fountain.png"
        string_val: "test\\9_3_high_airportterminal.png"
        string_val: "test\\9_4_high_castle.png"
        string_val: "test\\9_5_low_stadium.png"
        string_val: "test\\9_6_low_badlands.png"
        string_val: "test\\9_7_low_golfcourse.png"
        string_val: "test\\9_8_low_bridge.png"
        string_val: "test\\c10_10_low_street.png"
        string_val: "test\\c10_11_low_buildingfacade.png"
        string_val: "test\\c10_12_high_bathroom.png"
        string_val: "test\\c10_13_low_factory.png"
        string_val: "test\\c10_14_low_house.png"
        string_val: "test\\c10_15_high_fountain.png"
        string_val: "test\\c10_16_low_lake.png"
        string_val: "test\\c10_17_low_stadium.png"
        string_val: "test\\c10_18_high_bedroom.png"
        string_val: "test\\c10_19_low_golfcourse.png"
        string_val: "test\\c10_1_high_badlands.png"
        string_val: "test\\c10_20_high_iceberg.png"
        string_val: "test\\c10_21_high_lighthouse.png"
        string_val: "test\\c10_22_high_diningroom.png"
        string_val: "test\\c10_23_low_conferenceroom.png"
        string_val: "test\\c10_24_low_kitchen.png"
        string_val: "test\\c10_25_high_bridge.png"
        string_val: "test\\c10_26_high_playground.png"
        string_val: "test\\c10_27_high_livingroom.png"
        string_val: "test\\c10_28_low_pool.png"
        string_val: "test\\c10_29_low_dam.png"
        string_val: "test\\c10_2_low_castle.png"
        string_val: "test\\c10_30_high_mountain.png"
        string_val: "test\\c10_3_low_garden.png"
        string_val: "test\\c10_4_high_airportterminal.png"
        string_val: "test\\c10_5_high_tower.png"
        string_val: "test\\c10_6_low_canal.png"
        string_val: "test\\c10_7_low_amusementpark.png"
        string_val: "test\\c10_8_high_skyscraper.png"
        string_val: "test\\c10_9_high_farm.png"
        string_val: "test\\c11_10_low_diningroom.png"
        string_val: "test\\c11_11_high_garden.png"
        string_val: "test\\c11_12_high_dam.png"
        string_val: "test\\c11_13_low_airportterminal.png"
        string_val: "test\\c11_14_high_house.png"
        string_val: "test\\c11_15_low_iceberg.png"
        string_val: "test\\c11_16_high_lighthouse.png"
        string_val: "test\\c11_17_high_conferenceroom.png"
        string_val: "test\\c11_18_high_fountain.png"
        string_val: "test\\c11_19_low_golfcourse.png"
        string_val: "test\\c11_1_low_bathroom.png"
        string_val: "test\\c11_20_high_tower.png"
        string_val: "test\\c11_21_low_badlands.png"
        string_val: "test\\c11_22_high_farm.png"
        string_val: "test\\c11_23_low_playground.png"
        string_val: "test\\c11_24_high_mountain.png"
        string_val: "test\\c11_25_high_castle.png"
        string_val: "test\\c11_26_low_kitchen.png"
        string_val: "test\\c11_27_low_pool.png"
        string_val: "test\\c11_28_high_skyscraper.png"
        string_val: "test\\c11_29_low_canal.png"
        string_val: "test\\c11_2_low_street.png"
        string_val: "test\\c11_30_low_stadium.png"
        string_val: "test\\c11_3_low_buildingfacade.png"
        string_val: "test\\c11_4_high_livingroom.png"
        string_val: "test\\c11_5_low_factory.png"
        string_val: "test\\c11_6_high_lake.png"
        string_val: "test\\c11_7_low_bedroom.png"
        string_val: "test\\c11_8_high_bridge.png"
        string_val: "test\\c11_9_high_amusementpark.png"
        string_val: "test\\c12_10_high_diningroom.png"
        string_val: "test\\c12_11_low_garden.png"
        string_val: "test\\c12_12_low_dam.png"
        string_val: "test\\c12_13_high_airportterminal.png"
        string_val: "test\\c12_14_low_house.png"
        string_val: "test\\c12_15_high_iceberg.png"
        string_val: "test\\c12_16_low_lighthouse.png"
        string_val: "test\\c12_17_low_conferenceroom.png"
        string_val: "test\\c12_18_low_fountain.png"
        string_val: "test\\c12_19_high_golfcourse.png"
        string_val: "test\\c12_1_high_bathroom.png"
        string_val: "test\\c12_20_low_tower.png"
        string_val: "test\\c12_21_high_badlands.png"
        string_val: "test\\c12_22_low_farm.png"
        string_val: "test\\c12_23_high_playground.png"
        string_val: "test\\c12_24_low_mountain.png"
        string_val: "test\\c12_25_low_castle.png"
        string_val: "test\\c12_26_high_kitchen.png"
        string_val: "test\\c12_27_low_skyscraper.png"
        string_val: "test\\c12_28_high_pool.png"
        string_val: "test\\c12_29_high_canal.png"
        string_val: "test\\c12_2_high_street.png"
        string_val: "test\\c12_30_high_stadium.png"
        string_val: "test\\c12_3_high_buildingfacade.png"
        string_val: "test\\c12_4_low_livingroom.png"
        string_val: "test\\c12_5_high_factory.png"
        string_val: "test\\c12_6_low_lake.png"
        string_val: "test\\c12_7_high_bedroom.png"
        string_val: "test\\c12_8_low_bridge.png"
        string_val: "test\\c12_9_low_amusementpark.png"
        string_val: "test\\c13_10_low_conferenceroom.png"
        string_val: "test\\c13_12_high_bridge.png"
        string_val: "test\\c13_13_high_skyscraper.png"
        string_val: "test\\c13_14_high_diningroom.png"
        string_val: "test\\c13_15_high_iceberg.png"
        string_val: "test\\c13_16_low_bedroom.png"
        string_val: "test\\c13_17_high_tower.png"
        string_val: "test\\c13_18_low_lake.png"
        string_val: "test\\c13_19_low_playground.png"
        string_val: "test\\c13_1_high_factory.png"
        string_val: "test\\c13_20_high_house.png"
        string_val: "test\\c13_21_high_bathroom.png"
        string_val: "test\\c13_22_low_golfcourse.png"
        string_val: "test\\c13_23_low_castle.png"
        string_val: "test\\c13_24_high_kitchen.png"
        string_val: "test\\c13_25_low_mountain.png"
        string_val: "test\\c13_26_low_amusementpark.png"
        string_val: "test\\c13_27_high_stadium.png"
        string_val: "test\\c13_28_high_pool.png"
        string_val: "test\\c13_29_low_buildingfacade.png"
        string_val: "test\\c13_2_low_livingroom.png"
        string_val: "test\\c13_30_low_dam.png"
        string_val: "test\\c13_3_high_street.png"
        string_val: "test\\c13_4_high_airportterminal.png"
        string_val: "test\\c13_7_high_farm.png"
        string_val: "test\\c13_8_high_fountain.png"
        string_val: "test\\c13_9_high_canal.png"
        string_val: "test\\c14_10_high_lighthouse.png"
        string_val: "test\\c14_11_low_canal.png"
        string_val: "test\\c14_12_low_skyscraper.png"
        string_val: "test\\c14_14_low_diningroom.png"
        string_val: "test\\c14_15_high_dam.png"
        string_val: "test\\c14_16_high_bedroom.png"
        string_val: "test\\c14_17_low_tower.png"
        string_val: "test\\c14_18_high_lake.png"
        string_val: "test\\c14_19_high_playground.png"
        string_val: "test\\c14_1_high_factory.png"
        string_val: "test\\c14_20_low_house.png"
        string_val: "test\\c14_21_low_bathroom.png"
        string_val: "test\\c14_22_high_golfcourse.png"
        string_val: "test\\c14_23_high_castle.png"
        string_val: "test\\c14_24_high_mountain.png"
        string_val: "test\\c14_25_low_kitchen.png"
        string_val: "test\\c14_26_high_amusementpark.png"
        string_val: "test\\c14_27_low_stadium.png"
        string_val: "test\\c14_28_low_pool.png"
        string_val: "test\\c14_29_high_buildingfacade.png"
        string_val: "test\\c14_2_high_livingroom.png"
        string_val: "test\\c14_30_high_dam.png"
        string_val: "test\\c14_3_low_street.png"
        string_val: "test\\c14_4_low_airportterminal.png"
        string_val: "test\\c14_5_high_badlands.png"
        string_val: "test\\c14_6_high_garden.png"
        string_val: "test\\c14_7_low_farm.png"
        string_val: "test\\c14_8_low_fountain.png"
        string_val: "test\\c14_9_high_conferenceroom.png"
        string_val: "test\\c15_10_high_lake.png"
        string_val: "test\\c15_11_low_canal.png"
        string_val: "test\\c15_12_high_garden.png"
        string_val: "test\\c15_13_low_amusementpark.png"
        string_val: "test\\c15_14_high_badlands.png"
        string_val: "test\\c15_15_low_pool.png"
        string_val: "test\\c15_16_low_golfcourse.png"
        string_val: "test\\c15_17_high_castle.png"
        string_val: "test\\c15_18_low_conferenceroom.png"
        string_val: "test\\c15_19_low_diningroom.png"
        string_val: "test\\c15_1_high_livingroom.png"
        string_val: "test\\c15_20_high_playground.png"
        string_val: "test\\c15_21_high_lighthouse.png"
        string_val: "test\\c15_22_low_airportterminal.png"
        string_val: "test\\c15_23_high_buildingfacade.png"
        string_val: "test\\c15_24_high_fountain.png"
        string_val: "test\\c15_25_high_house.png"
        string_val: "test\\c15_26_high_iceberg.png"
        string_val: "test\\c15_27_high_street.png"
        string_val: "test\\c15_28_high_stadium.png"
        string_val: "test\\c15_29_low_tower.png"
        string_val: "test\\c15_2_low_skyscraper.png"
        string_val: "test\\c15_30_low_bathroom.png"
        string_val: "test\\c15_3_low_bridge.png"
        string_val: "test\\c15_4_high_bedroom.png"
        string_val: "test\\c15_5_low_mountain.png"
        string_val: "test\\c15_6_high_kitchen.png"
        string_val: "test\\c15_7_low_factory.png"
        string_val: "test\\c15_8_low_dam.png"
        string_val: "test\\c15_9_low_farm.png"
        string_val: "test\\c16_10_low_lake.png"
        string_val: "test\\c16_11_low_garden.png"
        string_val: "test\\c16_12_high_canal.png"
        string_val: "test\\c16_13_high_amusementpark.png"
        string_val: "test\\c16_14_low_badlands.png"
        string_val: "test\\c16_15_high_pool.png"
        string_val: "test\\c16_16_high_golfcourse.png"
        string_val: "test\\c16_17_low_castle.png"
        string_val: "test\\c16_18_high_conferenceroom.png"
        string_val: "test\\c16_19_high_diningroom.png"
        string_val: "test\\c16_1_low_livingroom.png"
        string_val: "test\\c16_20_low_playground.png"
        string_val: "test\\c16_21_low_lighthouse.png"
        string_val: "test\\c16_22_high_airportterminal.png"
        string_val: "test\\c16_23_low_fountain.png"
        string_val: "test\\c16_24_low_buildingfacade.png"
        string_val: "test\\c16_25_low_iceberg.png"
        string_val: "test\\c16_26_low_house.png"
        string_val: "test\\c16_27_low_street.png"
        string_val: "test\\c16_28_low_stadium.png"
        string_val: "test\\c16_29_high_tower.png"
        string_val: "test\\c16_2_high_skyscraper.png"
        string_val: "test\\c16_30_high_bathroom.png"
        string_val: "test\\c16_3_high_bridge.png"
        string_val: "test\\c16_4_low_bedroom.png"
        string_val: "test\\c16_5_low_kitchen.png"
        string_val: "test\\c16_6_high_mountain.png"
        string_val: "test\\c16_7_high_dam.png"
        string_val: "test\\c16_8_high_factory.png"
        string_val: "test\\c16_9_high_farm.png"
        string_val: "test\\c18_10_high_buildingfacade.png"
        string_val: "test\\c18_11_low_skyscraper.png"
        string_val: "test\\c18_12_low_kitchen.png"
        string_val: "test\\c18_13_high_stadium.png"
        string_val: "test\\c18_14_high_mountain.png"
        string_val: "test\\c18_15_high_lake.png"
        string_val: "test\\c18_16_high_bedroom.png"
        string_val: "test\\c18_17_low_diningroom.png"
        string_val: "test\\c18_18_high_bathroom.png"
        string_val: "test\\c18_1_high_golfcourse.png"
        string_val: "test\\c18_2_low_dam.png"
        string_val: "test\\c18_3_high_garden.png"
        string_val: "test\\c18_4_high_conferenceroom.png"
        string_val: "test\\c18_5_low_farm.png"
        string_val: "test\\c18_6_low_lighthouse.png"
        string_val: "test\\c18_7_low_canal.png"
        string_val: "test\\c18_8_low_iceberg.png"
        string_val: "test\\c18_9_high_bridge.png"
        string_val: "test\\c1_10_high_skyscraper.png"
        string_val: "test\\c1_11_high_lighthouse.png"
        string_val: "test\\c1_12_low_street.png"
        string_val: "test\\c1_13_low_pool.png"
        string_val: "test\\c1_14_low_bridge.png"
        string_val: "test\\c1_15_high_bedroom.png"
        string_val: "test\\c1_16_high_garden.png"
        string_val: "test\\c1_17_low_tower.png"
        string_val: "test\\c1_18_high_mountain.png"
        string_val: "test\\c1_19_high_diningroom.png"
        string_val: "test\\c1_1_high_conferenceroom.png"
        string_val: "test\\c1_20_high_kitchen.png"
        string_val: "test\\c1_21_high_canal.png"
        string_val: "test\\c1_22_low_golfcourse.png"
        string_val: "test\\c1_23_high_factory.png"
        string_val: "test\\c1_24_high_fountain.png"
        string_val: "test\\c1_25_low_buildingfacade.png"
        string_val: "test\\c1_26_low_castle.png"
        string_val: "test\\c1_27_high_lake.png"
        string_val: "test\\c1_28_high_badlands.png"
        string_val: "test\\c1_29_low_livingroom.png"
        string_val: "test\\c1_2_low_amusementpark.png"
        string_val: "test\\c1_30_low_airportterminal.png"
        string_val: "test\\c1_3_low_iceberg.png"
        string_val: "test\\c1_4_low_bathroom.png"
        string_val: "test\\c1_5_low_house.png"
        string_val: "test\\c1_6_low_farm.png"
        string_val: "test\\c1_7_high_stadium.png"
        string_val: "test\\c1_8_high_dam.png"
        string_val: "test\\c1_9_low_playground.png"
        string_val: "test\\c2_10_high_castle.png"
        string_val: "test\\c2_11_low_dam.png"
        string_val: "test\\c2_12_high_playground.png"
        string_val: "test\\c2_13_low_skyscraper.png"
        string_val: "test\\c2_14_low_lighthouse.png"
        string_val: "test\\c2_15_high_street.png"
        string_val: "test\\c2_16_high_pool.png"
        string_val: "test\\c2_17_high_bridge.png"
        string_val: "test\\c2_18_low_bedroom.png"
        string_val: "test\\c2_19_low_garden.png"
        string_val: "test\\c2_1_low_conferenceroom.png"
        string_val: "test\\c2_20_low_lake.png"
        string_val: "test\\c2_21_high_tower.png"
        string_val: "test\\c2_22_low_badlands.png"
        string_val: "test\\c2_23_low_mountain.png"
        string_val: "test\\c2_24_low_diningroom.png"
        string_val: "test\\c2_25_low_kitchen.png"
        string_val: "test\\c2_26_high_livingroom.png"
        string_val: "test\\c2_27_low_canal.png"
        string_val: "test\\c2_28_high_airportterminal.png"
        string_val: "test\\c2_29_high_golfcourse.png"
        string_val: "test\\c2_2_high_amusementpark.png"
        string_val: "test\\c2_30_low_factory.png"
        string_val: "test\\c2_3_high_iceberg.png"
        string_val: "test\\c2_4_high_bathroom.png"
        string_val: "test\\c2_5_high_house.png"
        string_val: "test\\c2_6_low_fountain.png"
        string_val: "test\\c2_7_high_farm.png"
        string_val: "test\\c2_8_high_buildingfacade.png"
        string_val: "test\\c2_9_low_stadium.png"
        string_val: "test\\c3_1_high_golfcourse.png"
        string_val: "test\\c3_2_high_castle.png"
        string_val: "test\\c3_3_high_amusementpark.png"
        string_val: "test\\c3_4_low_street.png"
        string_val: "test\\c3_5_low_airportterminal.png"
        string_val: "test\\c3_6_low_livingroom.png"
        string_val: "test\\c3_7_high_badlands.png"
        string_val: "test\\c3_8_low_lighthouse.png"
        string_val: "test\\c4_11_low_buildingfacade.png"
        string_val: "test\\c4_12_high_farm.png"
        string_val: "test\\c4_13_low_fountain.png"
        string_val: "test\\c4_14_high_castle.png"
        string_val: "test\\c4_16_high_bedroom.png"
        string_val: "test\\c4_17_high_iceberg.png"
        string_val: "test\\c4_19_low_conferenceroom.png"
        string_val: "test\\c4_1_low_canal.png"
        string_val: "test\\c4_20_high_tower.png"
        string_val: "test\\c4_21_low_house.png"
        string_val: "test\\c4_22_high_factory.png"
        string_val: "test\\c4_23_high_street.png"
        string_val: "test\\c4_25_high_mountain.png"
        string_val: "test\\c4_26_low_playground.png"
        string_val: "test\\c4_27_low_golfcourse.png"
        string_val: "test\\c4_28_high_diningroom.png"
        string_val: "test\\c4_29_high_pool.png"
        string_val: "test\\c4_2_low_bathroom.png"
        string_val: "test\\c4_30_low_skyscraper.png"
        string_val: "test\\c4_3_high_badlands.png"
        string_val: "test\\c4_4_high_stadium.png"
        string_val: "test\\c4_5_high_bridge.png"
        string_val: "test\\c4_6_low_amusementpark.png"
        string_val: "test\\c4_7_high_dam.png"
        string_val: "test\\c4_8_low_lake.png"
        string_val: "test\\c4_9_high_airportterminal.png"
        string_val: "test\\c5_10_low_airportterminal.png"
        string_val: "test\\c5_11_high_canal.png"
        string_val: "test\\c5_12_high_tower.png"
        string_val: "test\\c5_13_low_street.png"
        string_val: "test\\c5_14_low_bridge.png"
        string_val: "test\\c5_15_high_diningroom.png"
        string_val: "test\\c5_16_high_mountain.png"
        string_val: "test\\c5_17_high_bedroom.png"
        string_val: "test\\c5_18_low_stadium.png"
        string_val: "test\\c5_19_high_garden.png"
        string_val: "test\\c5_1_high_badlands.png"
        string_val: "test\\c5_20_high_buildingfacade.png"
        string_val: "test\\c5_21_low_kitchen.png"
        string_val: "test\\c5_22_high_iceberg.png"
        string_val: "test\\c5_23_low_house.png"
        string_val: "test\\c5_24_high_playground.png"
        string_val: "test\\c5_25_low_golfcourse.png"
        string_val: "test\\c5_26_low_lake.png"
        string_val: "test\\c5_27_high_farm.png"
        string_val: "test\\c5_28_low_dam.png"
        string_val: "test\\c5_29_low_fountain.png"
        string_val: "test\\c5_2_high_lighthouse.png"
        string_val: "test\\c5_30_low_factory.png"
        string_val: "test\\c5_3_high_amusementpark.png"
        string_val: "test\\c5_4_low_bathroom.png"
        string_val: "test\\c5_5_high_skyscraper.png"
        string_val: "test\\c5_6_low_conferenceroom.png"
        string_val: "test\\c5_8_low_castle.png"
        string_val: "test\\c5_9_high_pool.png"
        string_val: "test\\c6_10_high_kitchen.png"
        string_val: "test\\c6_11_low_buildingfacade.png"
        string_val: "test\\c6_12_low_farm.png"
        string_val: "test\\c6_13_high_fountain.png"
        string_val: "test\\c6_14_low_castle.png"
        string_val: "test\\c6_15_high_livingroom.png"
        string_val: "test\\c6_16_low_bedroom.png"
        string_val: "test\\c6_17_low_iceberg.png"
        string_val: "test\\c6_18_high_garden.png"
        string_val: "test\\c6_19_low_conferenceroom.png"
        string_val: "test\\c6_1_high_canal.png"
        string_val: "test\\c6_20_low_tower.png"
        string_val: "test\\c6_21_high_house.png"
        string_val: "test\\c6_22_low_factory.png"
        string_val: "test\\c6_23_low_street.png"
        string_val: "test\\c6_24_high_lighthouse.png"
        string_val: "test\\c6_25_low_mountain.png"
        string_val: "test\\c6_26_low_playground.png"
        string_val: "test\\c6_27_high_golfcourse.png"
        string_val: "test\\c6_28_low_diningroom.png"
        string_val: "test\\c6_29_low_pool.png"
        string_val: "test\\c6_2_high_bathroom.png"
        string_val: "test\\c6_30_low_skyscraper.png"
        string_val: "test\\c6_3_low_badlands.png"
        string_val: "test\\c6_4_low_stadium.png"
        string_val: "test\\c6_5_low_bridge.png"
        string_val: "test\\c6_6_high_amusementpark.png"
        string_val: "test\\c6_7_low_dam.png"
        string_val: "test\\c6_8_high_lake.png"
        string_val: "test\\c6_9_low_airportterminal.png"
        string_val: "test\\c8_10_low_garden.png"
        string_val: "test\\c8_11_high_livingroom.png"
        string_val: "test\\c8_12_high_fountain.png"
        string_val: "test\\c8_13_high_street.png"
        string_val: "test\\c8_14_low_castle.png"
        string_val: "test\\c8_15_high_tower.png"
        string_val: "test\\c8_16_low_buildingfacade.png"
        string_val: "test\\c8_17_low_dam.png"
        string_val: "test\\c8_18_high_airportterminal.png"
        string_val: "test\\c8_19_low_iceberg.png"
        string_val: "test\\c8_1_low_bridge.png"
        string_val: "test\\c8_20_high_golfcourse.png"
        string_val: "test\\c8_21_low_mountain.png"
        string_val: "test\\c8_22_high_canal.png"
        string_val: "test\\c8_23_high_badlands.png"
        string_val: "test\\c8_24_low_kitchen.png"
        string_val: "test\\c8_25_low_lighthouse.png"
        string_val: "test\\c8_26_high_bedroom.png"
        string_val: "test\\c8_27_high_factory.png"
        string_val: "test\\c8_28_high_pool.png"
        string_val: "test\\c8_29_high_lake.png"
        string_val: "test\\c8_2_low_bathroom.png"
        string_val: "test\\c8_30_high_conferenceroom.png"
        string_val: "test\\c8_3_low_playground.png"
        string_val: "test\\c8_4_low_diningroom.png"
        string_val: "test\\c8_5_high_skyscraper.png"
        string_val: "test\\c8_6_low_house.png"
        string_val: "test\\c8_7_low_stadium.png"
        string_val: "test\\c8_8_high_amusementpark.png"
        string_val: "test\\c8_9_high_farm.png"
        string_val: "test\\c9_10_high_street.png"
        string_val: "test\\c9_11_high_buildingfacade.png"
        string_val: "test\\c9_12_low_bathroom.png"
        string_val: "test\\c9_13_high_house.png"
        string_val: "test\\c9_14_high_factory.png"
        string_val: "test\\c9_15_low_fountain.png"
        string_val: "test\\c9_16_high_lake.png"
        string_val: "test\\c9_17_high_stadium.png"
        string_val: "test\\c9_18_low_bedroom.png"
        string_val: "test\\c9_19_high_golfcourse.png"
        string_val: "test\\c9_1_low_badlands.png"
        string_val: "test\\c9_20_low_iceberg.png"
        string_val: "test\\c9_21_low_lighthouse.png"
        string_val: "test\\c9_22_low_diningroom.png"
        string_val: "test\\c9_23_high_conferenceroom.png"
        string_val: "test\\c9_24_high_kitchen.png"
        string_val: "test\\c9_25_low_bridge.png"
        string_val: "test\\c9_26_low_playground.png"
        string_val: "test\\c9_27_high_pool.png"
        string_val: "test\\c9_28_low_livingroom.png"
        string_val: "test\\c9_29_high_dam.png"
        string_val: "test\\c9_2_high_castle.png"
        string_val: "test\\c9_30_low_mountain.png"
        string_val: "test\\c9_3_high_garden.png"
        string_val: "test\\c9_4_low_airportterminal.png"
        string_val: "test\\c9_5_low_tower.png"
        string_val: "test\\c9_6_high_canal.png"
        string_val: "test\\c9_7_low_skyscraper.png"
        string_val: "test\\c9_8_high_amusementpark.png"
        string_val: "test\\c9_9_low_farm.png"
        string_val: "test\\w10_10_high_bedroom.png"
        string_val: "test\\w10_11_high_amusementpark.png"
        string_val: "test\\w10_12_low_street.png"
        string_val: "test\\w10_13_low_dam.png"
        string_val: "test\\w10_14_high_conferenceroom.png"
        string_val: "test\\w10_15_high_golfcourse.png"
        string_val: "test\\w10_16_low_factory.png"
        string_val: "test\\w10_17_low_canal.png"
        string_val: "test\\w10_18_low_farm.png"
        string_val: "test\\w10_19_low_house.png"
        string_val: "test\\w10_1_high_iceberg.png"
        string_val: "test\\w10_20_low_pool.png"
        string_val: "test\\w10_21_high_livingroom.png"
        string_val: "test\\w10_22_high_lake.png"
        string_val: "test\\w10_23_high_lighthouse.png"
        string_val: "test\\w10_24_low_garden.png"
        string_val: "test\\w10_25_low_mountain.png"
        string_val: "test\\w10_26_high_airportterminal.png"
        string_val: "test\\w10_27_high_playground.png"
        string_val: "test\\w10_28_low_skyscraper.png"
        string_val: "test\\w10_29_low_buildingfacade.png"
        string_val: "test\\w10_2_high_fountain.png"
        string_val: "test\\w10_30_high_kitchen.png"
        string_val: "test\\w10_3_high_diningroom.png"
        string_val: "test\\w10_4_high_mountain.png"
        string_val: "test\\w10_5_low_bridge.png"
        string_val: "test\\w10_6_high_tower.png"
        string_val: "test\\w10_7_low_stadium.png"
        string_val: "test\\w10_8_low_castle.png"
        string_val: "test\\w10_9_low_bathroom.png"
        string_val: "test\\w11_10_low_amusementpark.png"
        string_val: "test\\w11_11_high_skyscraper.png"
        string_val: "test\\w11_12_low_castle.png"
        string_val: "test\\w11_13_high_mountain.png"
        string_val: "test\\w11_14_low_house.png"
        string_val: "test\\w11_15_low_livingroom.png"
        string_val: "test\\w11_16_low_bathroom.png"
        string_val: "test\\w11_17_low_conferenceroom.png"
        string_val: "test\\w11_18_low_badlands.png"
        string_val: "test\\w11_19_high_tower.png"
        string_val: "test\\w11_1_low_garden.png"
        string_val: "test\\w11_20_low_playground.png"
        string_val: "test\\w11_21_high_pool.png"
        string_val: "test\\w11_22_high_lake.png"
        string_val: "test\\w11_23_low_kitchen.png"
        string_val: "test\\w11_24_low_dam.png"
        string_val: "test\\w11_25_high_iceberg.png"
        string_val: "test\\w11_26_low_airportterminal.png"
        string_val: "test\\w11_27_high_stadium.png"
        string_val: "test\\w11_28_high_factory.png"
        string_val: "test\\w11_29_high_street.png"
        string_val: "test\\w11_2_high_buildingfacade.png"
        string_val: "test\\w11_30_high_canal.png"
        string_val: "test\\w11_3_low_golfcourse.png"
        string_val: "test\\w11_4_high_diningroom.png"
        string_val: "test\\w11_5_low_farm.png"
        string_val: "test\\w11_6_high_lighthouse.png"
        string_val: "test\\w11_7_low_fountain.png"
        string_val: "test\\w11_8_high_bridge.png"
        string_val: "test\\w11_9_high_bedroom.png"
        string_val: "test\\w12_10_high_amusementpark.png"
        string_val: "test\\w12_11_low_skyscraper.png"
        string_val: "test\\w12_12_high_castle.png"
        string_val: "test\\w12_13_low_mountain.png"
        string_val: "test\\w12_14_high_house.png"
        string_val: "test\\w12_15_high_livingroom.png"
        string_val: "test\\w12_16_high_bathroom.png"
        string_val: "test\\w12_17_high_conferenceroom.png"
        string_val: "test\\w12_18_high_badlands.png"
        string_val: "test\\w12_19_low_tower.png"
        string_val: "test\\w12_1_high_garden.png"
        string_val: "test\\w12_20_high_playground.png"
        string_val: "test\\w12_21_low_pool.png"
        string_val: "test\\w12_22_low_lake.png"
        string_val: "test\\w12_23_high_kitchen.png"
        string_val: "test\\w12_24_high_dam.png"
        string_val: "test\\w12_25_low_iceberg.png"
        string_val: "test\\w12_26_high_airportterminal.png"
        string_val: "test\\w12_27_low_stadium.png"
        string_val: "test\\w12_28_low_factory.png"
        string_val: "test\\w12_29_low_street.png"
        string_val: "test\\w12_2_low_buildingfacade.png"
        string_val: "test\\w12_30_low_canal.png"
        string_val: "test\\w12_3_high_golfcourse.png"
        string_val: "test\\w12_4_low_diningroom.png"
        string_val: "test\\w12_5_high_farm.png"
        string_val: "test\\w12_6_low_lighthouse.png"
        string_val: "test\\w12_7_high_fountain.png"
        string_val: "test\\w12_8_low_bridge.png"
        string_val: "test\\w12_9_low_bedroom.png"
        string_val: "test\\w13_10_high_stadium.png"
        string_val: "test\\w13_11_low_castle.png"
        string_val: "test\\w13_12_high_kitchen.png"
        string_val: "test\\w13_13_high_amusementpark.png"
        string_val: "test\\w13_14_low_pool.png"
        string_val: "test\\w13_15_low_mountain.png"
        string_val: "test\\w13_16_low_airportterminal.png"
        string_val: "test\\w13_17_low_buildingfacade.png"
        string_val: "test\\w13_18_low_dam.png"
        string_val: "test\\w13_19_high_bridge.png"
        string_val: "test\\w13_1_high_house.png"
        string_val: "test\\w13_20_low_bathroom.png"
        string_val: "test\\w13_21_high_canal.png"
        string_val: "test\\w13_22_high_lighthouse.png"
        string_val: "test\\w13_23_high_skyscraper.png"
        string_val: "test\\w13_24_high_lake.png"
        string_val: "test\\w13_25_high_golfcourse.png"
        string_val: "test\\w13_26_low_playground.png"
        string_val: "test\\w13_27_low_fountain.png"
        string_val: "test\\w13_28_low_badlands.png"
        string_val: "test\\w13_29_high_garden.png"
        string_val: "test\\w13_2_high_conferenceroom.png"
        string_val: "test\\w13_30_low_livingroom.png"
        string_val: "test\\w13_3_high_factory.png"
        string_val: "test\\w13_4_low_iceberg.png"
        string_val: "test\\w13_5_high_tower.png"
        string_val: "test\\w13_6_low_farm.png"
        string_val: "test\\w13_7_low_diningroom.png"
        string_val: "test\\w13_8_high_street.png"
        string_val: "test\\w13_9_low_bedroom.png"
        string_val: "test\\w14_10_low_stadium.png"
        string_val: "test\\w14_11_high_castle.png"
        string_val: "test\\w14_13_low_amusementpark.png"
        string_val: "test\\w14_14_high_pool.png"
        string_val: "test\\w14_15_high_mountain.png"
        string_val: "test\\w14_16_high_airportterminal.png"
        string_val: "test\\w14_17_high_buildingfacade.png"
        string_val: "test\\w14_18_high_dam.png"
        string_val: "test\\w14_19_low_bridge.png"
        string_val: "test\\w14_1_low_house.png"
        string_val: "test\\w14_20_high_bathroom.png"
        string_val: "test\\w14_21_low_canal.png"
        string_val: "test\\w14_22_low_lighthouse.png"
        string_val: "test\\w14_23_low_tower.png"
        string_val: "test\\w14_24_low_lake.png"
        string_val: "test\\w14_26_high_playground.png"
        string_val: "test\\w14_27_high_fountain.png"
        string_val: "test\\w14_28_high_badlands.png"
        string_val: "test\\w14_2_low_conferenceroom.png"
        string_val: "test\\w14_30_high_livingroom.png"
        string_val: "test\\w14_3_low_factory.png"
        string_val: "test\\w14_4_high_iceberg.png"
        string_val: "test\\w14_5_low_tower.png"
        string_val: "test\\w14_6_high_farm.png"
        string_val: "test\\w14_7_low_street.png"
        string_val: "test\\w14_8_high_diningroom.png"
        string_val: "test\\w14_9_high_bedroom.png"
        string_val: "test\\w15_10_high_bridge.png"
        string_val: "test\\w15_11_low_badlands.png"
        string_val: "test\\w15_12_high_street.png"
        string_val: "test\\w15_13_low_conferenceroom.png"
        string_val: "test\\w15_14_high_amusementpark.png"
        string_val: "test\\w15_15_low_castle.png"
        string_val: "test\\w15_16_high_canal.png"
        string_val: "test\\w15_17_high_kitchen.png"
        string_val: "test\\w15_18_low_garden.png"
        string_val: "test\\w15_19_high_bathroom.png"
        string_val: "test\\w15_1_high_skyscraper.png"
        string_val: "test\\w15_20_high_factory.png"
        string_val: "test\\w15_21_low_mountain.png"
        string_val: "test\\w15_22_high_pool.png"
        string_val: "test\\w15_23_low_tower.png"
        string_val: "test\\w15_24_high_buildingfacade.png"
        string_val: "test\\w15_25_high_iceberg.png"
        string_val: "test\\w15_26_high_fountain.png"
        string_val: "test\\w15_27_low_lake.png"
        string_val: "test\\w15_28_low_lighthouse.png"
        string_val: "test\\w15_29_low_farm.png"
        string_val: "test\\w15_2_low_stadium.png"
        string_val: "test\\w15_30_high_dam.png"
        string_val: "test\\w15_3_low_playground.png"
        string_val: "test\\w15_4_low_diningroom.png"
        string_val: "test\\w15_5_low_airportterminal.png"
        string_val: "test\\w15_6_low_golfcourse.png"
        string_val: "test\\w15_7_high_house.png"
        string_val: "test\\w15_8_high_livingroom.png"
        string_val: "test\\w15_9_low_bedroom.png"
        string_val: "test\\w16_10_high_bridge.png"
        string_val: "test\\w16_11_low_badlands.png"
        string_val: "test\\w16_12_high_street.png"
        string_val: "test\\w16_13_low_conferenceroom.png"
        string_val: "test\\w16_14_high_amusementpark.png"
        string_val: "test\\w16_15_low_castle.png"
        string_val: "test\\w16_16_high_canal.png"
        string_val: "test\\w16_17_high_kitchen.png"
        string_val: "test\\w16_18_low_garden.png"
        string_val: "test\\w16_19_high_bathroom.png"
        string_val: "test\\w16_1_high_skyscraper.png"
        string_val: "test\\w16_20_high_factory.png"
        string_val: "test\\w16_21_low_mountain.png"
        string_val: "test\\w16_22_high_pool.png"
        string_val: "test\\w16_23_low_tower.png"
        string_val: "test\\w16_24_high_buildingfacade.png"
        string_val: "test\\w16_25_high_iceberg.png"
        string_val: "test\\w16_26_high_fountain.png"
        string_val: "test\\w16_27_low_lake.png"
        string_val: "test\\w16_28_low_lighthouse.png"
        string_val: "test\\w16_29_low_farm.png"
        string_val: "test\\w16_2_low_stadium.png"
        string_val: "test\\w16_30_high_dam.png"
        string_val: "test\\w16_3_low_playground.png"
        string_val: "test\\w16_4_low_diningroom.png"
        string_val: "test\\w16_5_low_airportterminal.png"
        string_val: "test\\w16_6_low_golfcourse.png"
        string_val: "test\\w16_7_high_house.png"
        string_val: "test\\w16_8_high_livingroom.png"
        string_val: "test\\w16_9_low_bedroom.png"
        string_val: "test\\w17_10_high_iceberg.png"
        string_val: "test\\w17_11_high_airportterminal.png"
        string_val: "test\\w17_12_low_canal.png"
        string_val: "test\\w17_13_low_stadium.png"
        string_val: "test\\w17_14_high_amusementpark.png"
        string_val: "test\\w17_15_low_playground.png"
        string_val: "test\\w17_16_high_bridge.png"
        string_val: "test\\w17_17_low_lighthouse.png"
        string_val: "test\\w17_18_high_bedroom.png"
        string_val: "test\\w17_19_low_tower.png"
        string_val: "test\\w17_1_high_castle.png"
        string_val: "test\\w17_20_high_diningroom.png"
        string_val: "test\\w17_21_high_buildingfacade.png"
        string_val: "test\\w17_22_low_street.png"
        string_val: "test\\w17_23_low_fountain.png"
        string_val: "test\\w17_24_high_badlands.png"
        string_val: "test\\w17_25_high_skyscraper.png"
        string_val: "test\\w17_26_high_garden.png"
        string_val: "test\\w17_27_high_pool.png"
        string_val: "test\\w17_28_low_dam.png"
        string_val: "test\\w17_29_low_lake.png"
        string_val: "test\\w17_2_low_mountain.png"
        string_val: "test\\w17_30_high_conferenceroom.png"
        string_val: "test\\w17_3_low_livingroom.png"
        string_val: "test\\w17_4_low_bathroom.png"
        string_val: "test\\w17_5_low_golfcourse.png"
        string_val: "test\\w17_6_high_house.png"
        string_val: "test\\w17_7_low_farm.png"
        string_val: "test\\w17_8_low_factory.png"
        string_val: "test\\w17_9_high_kitchen.png"
        string_val: "test\\w18_10_low_iceberg.png"
        string_val: "test\\w18_11_low_airportterminal.png"
        string_val: "test\\w18_12_high_canal.png"
        string_val: "test\\w18_13_high_stadium.png"
        string_val: "test\\w18_14_low_amusementpark.png"
        string_val: "test\\w18_15_high_playground.png"
        string_val: "test\\w18_16_low_bridge.png"
        string_val: "test\\w18_17_high_lighthouse.png"
        string_val: "test\\w18_18_low_bedroom.png"
        string_val: "test\\w18_19_high_tower.png"
        string_val: "test\\w18_1_low_castle.png"
        string_val: "test\\w18_20_low_diningroom.png"
        string_val: "test\\w18_21_low_buildingfacade.png"
        string_val: "test\\w18_22_high_street.png"
        string_val: "test\\w18_23_high_fountain.png"
        string_val: "test\\w18_24_low_badlands.png"
        string_val: "test\\w18_25_low_skyscraper.png"
        string_val: "test\\w18_26_low_garden.png"
        string_val: "test\\w18_27_low_pool.png"
        string_val: "test\\w18_28_high_dam.png"
        string_val: "test\\w18_29_high_lake.png"
        string_val: "test\\w18_2_high_mountain.png"
        string_val: "test\\w18_30_low_conferenceroom.png"
        string_val: "test\\w18_3_high_livingroom.png"
        string_val: "test\\w18_4_high_bathroom.png"
        string_val: "test\\w18_5_high_golfcourse.png"
        string_val: "test\\w18_6_low_house.png"
        string_val: "test\\w18_7_high_farm.png"
        string_val: "test\\w18_8_high_factory.png"
        string_val: "test\\w18_9_low_kitchen.png"
        string_val: "test\\w19_10_high_bridge.png"
        string_val: "test\\w19_11_low_playground.png"
        string_val: "test\\w19_12_low_badlands.png"
        string_val: "test\\w19_13_low_bedroom.png"
        string_val: "test\\w19_14_high_golfcourse.png"
        string_val: "test\\w19_15_low_house.png"
        string_val: "test\\w19_16_low_stadium.png"
        string_val: "test\\w19_17_low_fountain.png"
        string_val: "test\\w19_18_low_factory.png"
        string_val: "test\\w19_19_low_conferenceroom.png"
        string_val: "test\\w19_1_high_diningroom.png"
        string_val: "test\\w19_20_high_dam.png"
        string_val: "test\\w19_21_low_garden.png"
        string_val: "test\\w19_22_high_pool.png"
        string_val: "test\\w19_23_high_street.png"
        string_val: "test\\w19_24_high_bathroom.png"
        string_val: "test\\w19_25_high_lake.png"
        string_val: "test\\w19_26_high_tower.png"
        string_val: "test\\w19_27_low_skyscraper.png"
        string_val: "test\\w19_28_high_airportterminal.png"
        string_val: "test\\w19_29_low_kitchen.png"
        string_val: "test\\w19_2_low_canal.png"
        string_val: "test\\w19_30_high_amusementpark.png"
        string_val: "test\\w19_3_high_castle.png"
        string_val: "test\\w19_4_low_livingroom.png"
        string_val: "test\\w19_5_high_buildingfacade.png"
        string_val: "test\\w19_6_low_farm.png"
        string_val: "test\\w19_7_low_mountain.png"
        string_val: "test\\w19_8_high_iceberg.png"
        string_val: "test\\w19_9_high_lighthouse.png"
        string_val: "test\\w20_10_low_bridge.png"
        string_val: "test\\w20_11_high_playground.png"
        string_val: "test\\w20_12_high_badlands.png"
        string_val: "test\\w20_13_high_bedroom.png"
        string_val: "test\\w20_14_low_golfcourse.png"
        string_val: "test\\w20_15_high_house.png"
        string_val: "test\\w20_16_high_stadium.png"
        string_val: "test\\w20_17_high_fountain.png"
        string_val: "test\\w20_18_high_factory.png"
        string_val: "test\\w20_19_high_conferenceroom.png"
        string_val: "test\\w20_1_low_diningroom.png"
        string_val: "test\\w20_20_low_dam.png"
        string_val: "test\\w20_21_high_garden.png"
        string_val: "test\\w20_22_low_pool.png"
        string_val: "test\\w20_23_low_street.png"
        string_val: "test\\w20_24_low_bathroom.png"
        string_val: "test\\w20_25_low_lake.png"
        string_val: "test\\w20_26_low_tower.png"
        string_val: "test\\w20_27_high_skyscraper.png"
        string_val: "test\\w20_28_low_airportterminal.png"
        string_val: "test\\w20_29_high_kitchen.png"
        string_val: "test\\w20_2_high_canal.png"
        string_val: "test\\w20_30_low_amusementpark.png"
        string_val: "test\\w20_3_low_castle.png"
        string_val: "test\\w20_4_high_livingroom.png"
        string_val: "test\\w20_5_low_buildingfacade.png"
        string_val: "test\\w20_6_high_farm.png"
        string_val: "test\\w20_7_high_mountain.png"
        string_val: "test\\w20_8_low_iceberg.png"
        string_val: "test\\w20_9_low_lighthouse.png"
        string_val: "test\\w21_10_low_lighthouse.png"
        string_val: "test\\w21_11_high_playground.png"
        string_val: "test\\w21_12_high_fountain.png"
        string_val: "test\\w21_13_low_mountain.png"
        string_val: "test\\w21_14_low_street.png"
        string_val: "test\\w21_15_low_bathroom.png"
        string_val: "test\\w21_16_low_diningroom.png"
        string_val: "test\\w21_17_high_buildingfacade.png"
        string_val: "test\\w21_18_high_factory.png"
        string_val: "test\\w21_19_low_golfcourse.png"
        string_val: "test\\w21_1_low_iceberg.png"
        string_val: "test\\w21_20_high_bridge.png"
        string_val: "test\\w21_21_low_conferenceroom.png"
        string_val: "test\\w21_22_high_skyscraper.png"
        string_val: "test\\w21_23_high_house.png"
        string_val: "test\\w21_24_high_lake.png"
        string_val: "test\\w21_25_high_dam.png"
        string_val: "test\\w21_26_high_castle.png"
        string_val: "test\\w21_27_high_bedroom.png"
        string_val: "test\\w21_28_low_mountain.png"
        string_val: "test\\w21_2_low_pool.png"
        string_val: "test\\w21_30_low_amusementpark.png"
        string_val: "test\\w21_3_high_farm.png"
        string_val: "test\\w21_4_low_canal.png"
        string_val: "test\\w21_5_high_tower.png"
        string_val: "test\\w21_6_high_kitchen.png"
        string_val: "test\\w21_7_low_livingroom.png"
        string_val: "test\\w21_8_high_stadium.png"
        string_val: "test\\w21_9_low_airportterminal.png"
        string_val: "test\\w22_10_high_lighthouse.png"
        string_val: "test\\w22_11_low_playground.png"
        string_val: "test\\w22_12_low_fountain.png"
        string_val: "test\\w22_13_high_badlands.png"
        string_val: "test\\w22_14_high_street.png"
        string_val: "test\\w22_15_high_bathroom.png"
        string_val: "test\\w22_16_high_diningroom.png"
        string_val: "test\\w22_17_low_buildingfacade.png"
        string_val: "test\\w22_18_low_factory.png"
        string_val: "test\\w22_19_high_golfcourse.png"
        string_val: "test\\w22_1_high_iceberg.png"
        string_val: "test\\w22_20_low_bridge.png"
        string_val: "test\\w22_21_high_conferenceroom.png"
        string_val: "test\\w22_22_low_skyscraper.png"
        string_val: "test\\w22_23_low_house.png"
        string_val: "test\\w22_24_low_lake.png"
        string_val: "test\\w22_25_low_dam.png"
        string_val: "test\\w22_26_low_castle.png"
        string_val: "test\\w22_27_low_bedroom.png"
        string_val: "test\\w22_28_high_mountain.png"
        string_val: "test\\w22_29_high_garden.png"
        string_val: "test\\w22_2_high_pool.png"
        string_val: "test\\w22_30_high_amusementpark.png"
        string_val: "test\\w22_3_low_farm.png"
        string_val: "test\\w22_4_high_canal.png"
        string_val: "test\\w22_5_low_tower.png"
        string_val: "test\\w22_6_low_kitchen.png"
        string_val: "test\\w22_7_high_livingroom.png"
        string_val: "test\\w22_8_low_stadium.png"
        string_val: "test\\w22_9_high_airportterminal.png"
        string_val: "test\\w23_10_high_bathroom.png"
        string_val: "test\\w23_11_low_pool.png"
        string_val: "test\\w23_12_high_tower.png"
        string_val: "test\\w23_13_high_house.png"
        string_val: "test\\w23_14_high_badlands.png"
        string_val: "test\\w23_15_low_diningroom.png"
        string_val: "test\\w23_16_high_buildingfacade.png"
        string_val: "test\\w23_17_low_street.png"
        string_val: "test\\w23_18_high_fountain.png"
        string_val: "test\\w23_19_high_conferenceroom.png"
        string_val: "test\\w23_1_low_mountain.png"
        string_val: "test\\w23_20_high_livingroom.png"
        string_val: "test\\w23_21_low_iceberg.png"
        string_val: "test\\w23_22_low_dam.png"
        string_val: "test\\w23_23_low_stadium.png"
        string_val: "test\\w23_24_low_castle.png"
        string_val: "test\\w23_25_low_garden.png"
        string_val: "test\\w23_26_low_canal.png"
        string_val: "test\\w23_27_high_lighthouse.png"
        string_val: "test\\w23_28_low_amusementpark.png"
        string_val: "test\\w23_29_low_playground.png"
        string_val: "test\\w23_2_high_skyscraper.png"
        string_val: "test\\w23_30_high_lake.png"
        string_val: "test\\w23_3_low_bridge.png"
        string_val: "test\\w23_4_low_farm.png"
        string_val: "test\\w23_5_low_golfcourse.png"
        string_val: "test\\w23_6_high_kitchen.png"
        string_val: "test\\w23_7_high_airportterminal.png"
        string_val: "test\\w23_8_high_factory.png"
        string_val: "test\\w23_9_high_bedroom.png"
        string_val: "test\\w24_10_low_bathroom.png"
        string_val: "test\\w24_11_high_pool.png"
        string_val: "test\\w24_12_low_tower.png"
        string_val: "test\\w24_13_low_house.png"
        string_val: "test\\w24_14_low_badlands.png"
        string_val: "test\\w24_15_high_diningroom.png"
        string_val: "test\\w24_16_low_buildingfacade.png"
        string_val: "test\\w24_17_high_street.png"
        string_val: "test\\w24_18_low_fountain.png"
        string_val: "test\\w24_19_low_conferenceroom.png"
        string_val: "test\\w24_1_high_mountain.png"
        string_val: "test\\w24_20_low_livingroom.png"
        string_val: "test\\w24_21_high_iceberg.png"
        string_val: "test\\w24_22_high_dam.png"
        string_val: "test\\w24_23_high_stadium.png"
        string_val: "test\\w24_24_high_castle.png"
        string_val: "test\\w24_25_high_garden.png"
        string_val: "test\\w24_26_high_canal.png"
        string_val: "test\\w24_27_low_lighthouse.png"
        string_val: "test\\w24_28_high_amusementpark.png"
        string_val: "test\\w24_29_high_playground.png"
        string_val: "test\\w24_2_low_skyscraper.png"
        string_val: "test\\w24_30_low_lake.png"
        string_val: "test\\w24_3_high_bridge.png"
        string_val: "test\\w24_4_high_farm.png"
        string_val: "test\\w24_5_high_golfcourse.png"
        string_val: "test\\w24_6_low_kitchen.png"
        string_val: "test\\w24_7_low_airportterminal.png"
        string_val: "test\\w24_8_low_factory.png"
        string_val: "test\\w24_9_low_bedroom.png"
        string_val: "test\\w25_10_low_lighthouse.png"
        string_val: "test\\w25_11_low_skyscraper.png"
        string_val: "test\\w25_12_low_house.png"
        string_val: "test\\w25_13_high_factory.png"
        string_val: "test\\w25_14_low_amusementpark.png"
        string_val: "test\\w25_15_high_livingroom.png"
        string_val: "test\\w25_16_low_dam.png"
        string_val: "test\\w25_17_high_mountain.png"
        string_val: "test\\w25_18_low_diningroom.png"
        string_val: "test\\w25_19_low_stadium.png"
        string_val: "test\\w25_1_high_bathroom.png"
        string_val: "test\\w25_20_high_golfcourse.png"
        string_val: "test\\w25_21_low_farm.png"
        string_val: "test\\w25_22_low_canal.png"
        string_val: "test\\w25_23_low_kitchen.png"
        string_val: "test\\w25_24_high_garden.png"
        string_val: "test\\w25_25_low_badlands.png"
        string_val: "test\\w25_26_high_playground.png"
        string_val: "test\\w25_27_low_bedroom.png"
        string_val: "test\\w25_28_high_tower.png"
        string_val: "test\\w25_29_low_bridge.png"
        string_val: "test\\w25_2_low_fountain.png"
        string_val: "test\\w25_30_high_airportterminal.png"
        string_val: "test\\w25_3_high_pool.png"
        string_val: "test\\w25_4_high_conferenceroom.png"
        string_val: "test\\w25_5_high_castle.png"
        string_val: "test\\w25_6_high_street.png"
        string_val: "test\\w25_7_high_buildingfacade.png"
        string_val: "test\\w25_8_low_lake.png"
        string_val: "test\\w25_9_high_iceberg.png"
        string_val: "test\\w26_10_high_lighthouse.png"
        string_val: "test\\w26_11_high_skyscraper.png"
        string_val: "test\\w26_12_high_house.png"
        string_val: "test\\w26_13_low_factory.png"
        string_val: "test\\w26_14_high_amusementpark.png"
        string_val: "test\\w26_15_low_livingroom.png"
        string_val: "test\\w26_16_high_dam.png"
        string_val: "test\\w26_17_low_mountain.png"
        string_val: "test\\w26_18_high_diningroom.png"
        string_val: "test\\w26_19_high_stadium.png"
        string_val: "test\\w26_1_low_bathroom.png"
        string_val: "test\\w26_20_low_golfcourse.png"
        string_val: "test\\w26_21_high_farm.png"
        string_val: "test\\w26_22_high_canal.png"
        string_val: "test\\w26_23_high_kitchen.png"
        string_val: "test\\w26_24_low_garden.png"
        string_val: "test\\w26_25_high_badlands.png"
        string_val: "test\\w26_26_low_playground.png"
        string_val: "test\\w26_27_high_bedroom.png"
        string_val: "test\\w26_28_low_tower.png"
        string_val: "test\\w26_29_high_bridge.png"
        string_val: "test\\w26_2_high_fountain.png"
        string_val: "test\\w26_30_low_airportterminal.png"
        string_val: "test\\w26_3_low_pool.png"
        string_val: "test\\w26_4_low_conferenceroom.png"
        string_val: "test\\w26_5_low_castle.png"
        string_val: "test\\w26_6_low_street.png"
        string_val: "test\\w26_7_low_buildingfacade.png"
        string_val: "test\\w26_8_high_lake.png"
        string_val: "test\\w26_9_low_iceberg.png"
        string_val: "test\\w27_10_low_fountain.png"
        string_val: "test\\w27_11_high_livingroom.png"
        string_val: "test\\w27_12_high_bedroom.png"
        string_val: "test\\w27_13_low_skyscraper.png"
        string_val: "test\\w27_14_low_pool.png"
        string_val: "test\\w27_16_low_house.png"
        string_val: "test\\w27_17_low_castle.png"
        string_val: "test\\w27_18_low_farm.png"
        string_val: "test\\w27_19_high_mountain.png"
        string_val: "test\\w27_1_high_lighthouse.png"
        string_val: "test\\w27_20_low_golfcourse.png"
        string_val: "test\\w27_21_high_badlands.png"
        string_val: "test\\w27_22_low_diningroom.png"
        string_val: "test\\w27_23_high_lake.png"
        string_val: "test\\w27_24_high_airportterminal.png"
        string_val: "test\\w27_25_low_dam.png"
        string_val: "test\\w27_26_low_amusementpark.png"
        string_val: "test\\w27_27_low_stadium.png"
        string_val: "test\\w27_28_high_factory.png"
        string_val: "test\\w27_29_low_iceberg.png"
        string_val: "test\\w27_2_high_conferenceroom.png"
        string_val: "test\\w27_30_low_canal.png"
        string_val: "test\\w27_3_low_garden.png"
        string_val: "test\\w27_4_high_playground.png"
        string_val: "test\\w27_5_high_buildingfacade.png"
        string_val: "test\\w27_6_high_bathroom.png"
        string_val: "test\\w27_7_high_bridge.png"
        string_val: "test\\w27_8_high_street.png"
        string_val: "test\\w27_9_high_tower.png"
        string_val: "test\\w28_10_high_fountain.png"
        string_val: "test\\w28_11_low_livingroom.png"
        string_val: "test\\w28_12_low_bedroom.png"
        string_val: "test\\w28_13_high_skyscraper.png"
        string_val: "test\\w28_14_high_pool.png"
        string_val: "test\\w28_15_high_kitchen.png"
        string_val: "test\\w28_16_high_house.png"
        string_val: "test\\w28_17_high_castle.png"
        string_val: "test\\w28_18_high_farm.png"
        string_val: "test\\w28_19_low_mountain.png"
        string_val: "test\\w28_1_low_lighthouse.png"
        string_val: "test\\w28_20_high_golfcourse.png"
        string_val: "test\\w28_21_low_badlands.png"
        string_val: "test\\w28_22_high_diningroom.png"
        string_val: "test\\w28_23_low_lake.png"
        string_val: "test\\w28_24_low_airportterminal.png"
        string_val: "test\\w28_25_high_dam.png"
        string_val: "test\\w28_26_high_amusementpark.png"
        string_val: "test\\w28_27_high_stadium.png"
        string_val: "test\\w28_28_low_factory.png"
        string_val: "test\\w28_29_high_iceberg.png"
        string_val: "test\\w28_2_low_conferenceroom.png"
        string_val: "test\\w28_30_high_canal.png"
        string_val: "test\\w28_3_high_garden.png"
        string_val: "test\\w28_4_low_playground.png"
        string_val: "test\\w28_5_low_buildingfacade.png"
        string_val: "test\\w28_6_low_bathroom.png"
        string_val: "test\\w28_7_low_bridge.png"
        string_val: "test\\w28_8_low_street.png"
        string_val: "test\\w28_9_low_tower.png"
        string_val: "test\\w29_10_low_bridge.png"
        string_val: "test\\w29_11_high_badlands.png"
        string_val: "test\\w29_12_low_street.png"
        string_val: "test\\w29_13_high_conferenceroom.png"
        string_val: "test\\w29_14_low_amusementpark.png"
        string_val: "test\\w29_15_high_castle.png"
        string_val: "test\\w29_16_low_canal.png"
        string_val: "test\\w29_17_low_kitchen.png"
        string_val: "test\\w29_18_high_garden.png"
        string_val: "test\\w29_19_low_bathroom.png"
        string_val: "test\\w29_1_low_skyscraper.png"
        string_val: "test\\w29_20_low_factory.png"
        string_val: "test\\w29_21_high_mountain.png"
        string_val: "test\\w29_23_high_tower.png"
        string_val: "test\\w29_24_low_buildingfacade.png"
        string_val: "test\\w29_25_low_iceberg.png"
        string_val: "test\\w29_26_low_fountain.png"
        string_val: "test\\w29_27_high_lake.png"
        string_val: "test\\w29_28_high_lighthouse.png"
        string_val: "test\\w29_29_high_farm.png"
        string_val: "test\\w29_2_high_stadium.png"
        string_val: "test\\w29_30_low_dam.png"
        string_val: "test\\w29_3_high_playground.png"
        string_val: "test\\w29_4_high_diningroom.png"
        string_val: "test\\w29_5_high_airportterminal.png"
        string_val: "test\\w29_6_high_golfcourse.png"
        string_val: "test\\w29_7_low_house.png"
        string_val: "test\\w29_8_low_livingroom.png"
        string_val: "test\\w29_9_high_bedroom.png"
        string_val: "test\\w2_10_high_castle.png"
        string_val: "test\\w2_11_low_bathroom.png"
        string_val: "test\\w2_12_high_garden.png"
        string_val: "test\\w2_13_low_diningroom.png"
        string_val: "test\\w2_14_high_skyscraper.png"
        string_val: "test\\w2_15_high_farm.png"
        string_val: "test\\w2_16_high_fountain.png"
        string_val: "test\\w2_17_high_pool.png"
        string_val: "test\\w2_18_high_iceberg.png"
        string_val: "test\\w2_19_low_amusementpark.png"
        string_val: "test\\w2_1_low_factory.png"
        string_val: "test\\w2_20_high_dam.png"
        string_val: "test\\w2_21_low_golfcourse.png"
        string_val: "test\\w2_22_high_lake.png"
        string_val: "test\\w2_23_low_tower.png"
        string_val: "test\\w2_25_low_buildingfacade.png"
        string_val: "test\\w2_26_high_bridge.png"
        string_val: "test\\w2_27_low_canal.png"
        string_val: "test\\w2_28_low_badlands.png"
        string_val: "test\\w2_29_high_kitchen.png"
        string_val: "test\\w2_2_high_stadium.png"
        string_val: "test\\w2_30_low_playground.png"
        string_val: "test\\w2_3_high_bedroom.png"
        string_val: "test\\w2_4_low_lighthouse.png"
        string_val: "test\\w2_5_low_mountain.png"
        string_val: "test\\w2_6_low_airportterminal.png"
        string_val: "test\\w2_7_low_street.png"
        string_val: "test\\w2_8_high_house.png"
        string_val: "test\\w2_9_high_conferenceroom.png"
        string_val: "test\\w30_10_low_bridge.png"
        string_val: "test\\w30_11_high_badlands.png"
        string_val: "test\\w30_12_low_street.png"
        string_val: "test\\w30_13_high_conferenceroom.png"
        string_val: "test\\w30_14_low_amusementpark.png"
        string_val: "test\\w30_15_high_castle.png"
        string_val: "test\\w30_16_low_canal.png"
        string_val: "test\\w30_17_low_kitchen.png"
        string_val: "test\\w30_18_high_garden.png"
        string_val: "test\\w30_19_low_bathroom.png"
        string_val: "test\\w30_1_low_skyscraper.png"
        string_val: "test\\w30_20_low_factory.png"
        string_val: "test\\w30_21_high_mountain.png"
        string_val: "test\\w30_22_low_pool.png"
        string_val: "test\\w30_23_high_tower.png"
        string_val: "test\\w30_24_low_buildingfacade.png"
        string_val: "test\\w30_25_low_iceberg.png"
        string_val: "test\\w30_26_low_fountain.png"
        string_val: "test\\w30_27_high_lake.png"
        string_val: "test\\w30_28_high_lighthouse.png"
        string_val: "test\\w30_29_high_farm.png"
        string_val: "test\\w30_2_high_stadium.png"
        string_val: "test\\w30_30_low_dam.png"
        string_val: "test\\w30_3_high_playground.png"
        string_val: "test\\w30_4_high_diningroom.png"
        string_val: "test\\w30_5_high_airportterminal.png"
        string_val: "test\\w30_6_high_golfcourse.png"
        string_val: "test\\w30_7_low_house.png"
        string_val: "test\\w30_8_low_livingroom.png"
        string_val: "test\\w30_9_high_bedroom.png"
        string_val: "test\\w3_10_low_street.png"
        string_val: "test\\w3_11_high_farm.png"
        string_val: "test\\w3_12_high_garden.png"
        string_val: "test\\w3_13_low_amusementpark.png"
        string_val: "test\\w3_14_high_lake.png"
        string_val: "test\\w3_15_high_airportterminal.png"
        string_val: "test\\w3_16_low_skyscraper.png"
        string_val: "test\\w3_17_high_castle.png"
        string_val: "test\\w3_18_high_mountain.png"
        string_val: "test\\w3_19_low_stadium.png"
        string_val: "test\\w3_1_low_golfcourse.png"
        string_val: "test\\w3_20_low_conferenceroom.png"
        string_val: "test\\w3_21_low_buildingfacade.png"
        string_val: "test\\w3_22_high_pool.png"
        string_val: "test\\w3_23_low_bathroom.png"
        string_val: "test\\w3_24_high_dam.png"
        string_val: "test\\w3_25_high_diningroom.png"
        string_val: "test\\w3_27_low_tower.png"
        string_val: "test\\w3_28_high_playground.png"
        string_val: "test\\w3_29_high_factory.png"
        string_val: "test\\w3_2_high_badlands.png"
        string_val: "test\\w3_30_high_house.png"
        string_val: "test\\w3_3_low_livingroom.png"
        string_val: "test\\w3_4_high_bedroom.png"
        string_val: "test\\w3_5_low_bridge.png"
        string_val: "test\\w3_7_high_canal.png"
        string_val: "test\\w3_8_low_lighthouse.png"
        string_val: "test\\w3_9_low_iceberg.png"
        string_val: "test\\w4_10_high_street.png"
        string_val: "test\\w4_11_low_farm.png"
        string_val: "test\\w4_12_low_garden.png"
        string_val: "test\\w4_13_high_amusementpark.png"
        string_val: "test\\w4_14_high_skyscraper.png"
        string_val: "test\\w4_15_low_lake.png"
        string_val: "test\\w4_16_low_airportterminal.png"
        string_val: "test\\w4_17_low_castle.png"
        string_val: "test\\w4_18_low_mountain.png"
        string_val: "test\\w4_19_high_stadium.png"
        string_val: "test\\w4_1_high_golfcourse.png"
        string_val: "test\\w4_20_high_conferenceroom.png"
        string_val: "test\\w4_21_high_buildingfacade.png"
        string_val: "test\\w4_22_low_pool.png"
        string_val: "test\\w4_23_high_bathroom.png"
        string_val: "test\\w4_24_low_dam.png"
        string_val: "test\\w4_25_low_diningroom.png"
        string_val: "test\\w4_26_high_fountain.png"
        string_val: "test\\w4_27_high_tower.png"
        string_val: "test\\w4_28_low_playground.png"
        string_val: "test\\w4_29_low_factory.png"
        string_val: "test\\w4_2_low_badlands.png"
        string_val: "test\\w4_30_low_house.png"
        string_val: "test\\w4_3_high_livingroom.png"
        string_val: "test\\w4_4_low_bedroom.png"
        string_val: "test\\w4_5_high_bridge.png"
        string_val: "test\\w4_6_high_kitchen.png"
        string_val: "test\\w4_7_low_canal.png"
        string_val: "test\\w4_8_high_lighthouse.png"
        string_val: "test\\w4_9_high_iceberg.png"
        string_val: "test\\w5_10_high_badlands.png"
        string_val: "test\\w5_11_low_bridge.png"
        string_val: "test\\w5_12_high_buildingfacade.png"
        string_val: "test\\w5_13_high_tower.png"
        string_val: "test\\w5_14_high_garden.png"
        string_val: "test\\w5_15_low_amusementpark.png"
        string_val: "test\\w5_16_low_livingroom.png"
        string_val: "test\\w5_17_high_diningroom.png"
        string_val: "test\\w5_18_low_castle.png"
        string_val: "test\\w5_19_low_fountain.png"
        string_val: "test\\w5_1_high_playground.png"
        string_val: "test\\w5_20_high_canal.png"
        string_val: "test\\w5_21_low_bathroom.png"
        string_val: "test\\w5_22_high_dam.png"
        string_val: "test\\w5_23_low_iceberg.png"
        string_val: "test\\w5_24_high_mountain.png"
        string_val: "test\\w5_25_high_house.png"
        string_val: "test\\w5_26_low_pool.png"
        string_val: "test\\w5_27_low_lake.png"
        string_val: "test\\w5_28_high_street.png"
        string_val: "test\\w5_29_low_stadium.png"
        string_val: "test\\w5_2_high_conferenceroom.png"
        string_val: "test\\w5_30_high_golfcourse.png"
        string_val: "test\\w5_3_low_bedroom.png"
        string_val: "test\\w5_4_low_skyscraper.png"
        string_val: "test\\w5_5_low_farm.png"
        string_val: "test\\w5_6_high_kitchen.png"
        string_val: "test\\w5_7_high_lighthouse.png"
        string_val: "test\\w5_8_low_factory.png"
        string_val: "test\\w5_9_low_airportterminal.png"
        string_val: "test\\w6_10_low_badlands.png"
        string_val: "test\\w6_11_high_bridge.png"
        string_val: "test\\w6_12_low_buildingfacade.png"
        string_val: "test\\w6_13_low_tower.png"
        string_val: "test\\w6_15_high_amusementpark.png"
        string_val: "test\\w6_16_high_livingroom.png"
        string_val: "test\\w6_17_low_diningroom.png"
        string_val: "test\\w6_18_high_castle.png"
        string_val: "test\\w6_19_high_fountain.png"
        string_val: "test\\w6_1_low_playground.png"
        string_val: "test\\w6_20_low_canal.png"
        string_val: "test\\w6_21_high_bathroom.png"
        string_val: "test\\w6_22_low_dam.png"
        string_val: "test\\w6_23_high_iceberg.png"
        string_val: "test\\w6_24_low_mountain.png"
        string_val: "test\\w6_25_low_house.png"
        string_val: "test\\w6_26_high_pool.png"
        string_val: "test\\w6_27_high_lake.png"
        string_val: "test\\w6_28_low_street.png"
        string_val: "test\\w6_29_high_stadium.png"
        string_val: "test\\w6_2_low_conferenceroom.png"
        string_val: "test\\w6_30_low_golfcourse.png"
        string_val: "test\\w6_3_high_bedroom.png"
        string_val: "test\\w6_4_high_skyscraper.png"
        string_val: "test\\w6_5_high_farm.png"
        string_val: "test\\w6_6_low_kitchen.png"
        string_val: "test\\w6_8_high_factory.png"
        string_val: "test\\w6_9_high_airportterminal.png"
        string_val: "test\\w7_10_high_lake.png"
        string_val: "test\\w7_11_high_dam.png"
        string_val: "test\\w7_13_high_fountain.png"
      }
    }
  }
}
node {
  name: "load_images/input_producer/Size"
  op: "Const"
  attr {
    key: "_output_shapes"
    value {
      list {
        shape {
        }
      }
    }
  }
  attr {
    key: "dtype"
    value {
      type: DT_INT32
    }
  }
  attr {
    key: "value"
    value {
      tensor {
        dtype: DT_INT32
        tensor_shape {
        }
        int_val: 1586
      }
    }
  }
}
node {
  name: "load_images/input_producer/Greater/y"
  op: "Const"
  attr {
    key: "_output_shapes"
    value {
      list {
        shape {
        }
      }
    }
  }
  attr {
    key: "dtype"
    value {
      type: DT_INT32
    }
  }
  attr {
    key: "value"
    value {
      tensor {
        dtype: DT_INT32
        tensor_shape {
        }
        int_val: 0
      }
    }
  }
}
node {
  name: "load_images/input_producer/Greater"
  op: "Greater"
  input: "load_images/input_producer/Size"
  input: "load_images/input_producer/Greater/y"
  attr {
    key: "T"
    value {
      type: DT_INT32
    }
  }
  attr {
    key: "_output_shapes"
    value {
      list {
        shape {
        }
      }
    }
  }
}
node {
  name: "load_images/input_producer/Assert/Const"
  op: "Const"
  attr {
    key: "_output_shapes"
    value {
      list {
        shape {
        }
      }
    }
  }
  attr {
    key: "dtype"
    value {
      type: DT_STRING
    }
  }
  attr {
    key: "value"
    value {
      tensor {
        dtype: DT_STRING
        tensor_shape {
        }
        string_val: "string_input_producer requires a non-null input tensor"
      }
    }
  }
}
node {
  name: "load_images/input_producer/Assert/Assert/data_0"
  op: "Const"
  attr {
    key: "_output_shapes"
    value {
      list {
        shape {
        }
      }
    }
  }
  attr {
    key: "dtype"
    value {
      type: DT_STRING
    }
  }
  attr {
    key: "value"
    value {
      tensor {
        dtype: DT_STRING
        tensor_shape {
        }
        string_val: "string_input_producer requires a non-null input tensor"
      }
    }
  }
}
node {
  name: "load_images/input_producer/Assert/Assert"
  op: "Assert"
  input: "load_images/input_producer/Greater"
  input: "load_images/input_producer/Assert/Assert/data_0"
  attr {
    key: "T"
    value {
      list {
        type: DT_STRING
      }
    }
  }
  attr {
    key: "summarize"
    value {
      i: 3
    }
  }
}
node {
  name: "load_images/input_producer/Identity"
  op: "Identity"
  input: "load_images/input_producer/Const"
  input: "^load_images/input_producer/Assert/Assert"
  attr {
    key: "T"
    value {
      type: DT_STRING
    }
  }
  attr {
    key: "_output_shapes"
    value {
      list {
        shape {
          dim {
            size: 1586
          }
        }
      }
    }
  }
}
node {
  name: "load_images/input_producer"
  op: "FIFOQueueV2"
  attr {
    key: "_output_shapes"
    value {
      list {
        shape {
        }
      }
    }
  }
  attr {
    key: "capacity"
    value {
      i: 32
    }
  }
  attr {
    key: "component_types"
    value {
      list {
        type: DT_STRING
      }
    }
  }
  attr {
    key: "container"
    value {
      s: ""
    }
  }
  attr {
    key: "shapes"
    value {
      list {
        shape {
        }
      }
    }
  }
  attr {
    key: "shared_name"
    value {
      s: ""
    }
  }
}
node {
  name: "load_images/input_producer/input_producer_EnqueueMany"
  op: "QueueEnqueueManyV2"
  input: "load_images/input_producer"
  input: "load_images/input_producer/Identity"
  attr {
    key: "Tcomponents"
    value {
      list {
        type: DT_STRING
      }
    }
  }
  attr {
    key: "timeout_ms"
    value {
      i: -1
    }
  }
}
node {
  name: "load_images/input_producer/input_producer_Close"
  op: "QueueCloseV2"
  input: "load_images/input_producer"
  attr {
    key: "cancel_pending_enqueues"
    value {
      b: false
    }
  }
}
node {
  name: "load_images/input_producer/input_producer_Close_1"
  op: "QueueCloseV2"
  input: "load_images/input_producer"
  attr {
    key: "cancel_pending_enqueues"
    value {
      b: true
    }
  }
}
node {
  name: "load_images/input_producer/input_producer_Size"
  op: "QueueSizeV2"
  input: "load_images/input_producer"
  attr {
    key: "_output_shapes"
    value {
      list {
        shape {
        }
      }
    }
  }
}
node {
  name: "load_images/input_producer/ToFloat"
  op: "Cast"
  input: "load_images/input_producer/input_producer_Size"
  attr {
    key: "DstT"
    value {
      type: DT_FLOAT
    }
  }
  attr {
    key: "SrcT"
    value {
      type: DT_INT32
    }
  }
  attr {
    key: "_output_shapes"
    value {
      list {
        shape {
        }
      }
    }
  }
}
node {
  name: "load_images/input_producer/mul/y"
  op: "Const"
  attr {
    key: "_output_shapes"
    value {
      list {
        shape {
        }
      }
    }
  }
  attr {
    key: "dtype"
    value {
      type: DT_FLOAT
    }
  }
  attr {
    key: "value"
    value {
      tensor {
        dtype: DT_FLOAT
        tensor_shape {
        }
        float_val: 0.03125
      }
    }
  }
}
node {
  name: "load_images/input_producer/mul"
  op: "Mul"
  input: "load_images/input_producer/ToFloat"
  input: "load_images/input_producer/mul/y"
  attr {
    key: "T"
    value {
      type: DT_FLOAT
    }
  }
  attr {
    key: "_output_shapes"
    value {
      list {
        shape {
        }
      }
    }
  }
}
node {
  name: "load_images/input_producer/fraction_of_32_full/tags"
  op: "Const"
  attr {
    key: "_output_shapes"
    value {
      list {
        shape {
        }
      }
    }
  }
  attr {
    key: "dtype"
    value {
      type: DT_STRING
    }
  }
  attr {
    key: "value"
    value {
      tensor {
        dtype: DT_STRING
        tensor_shape {
        }
        string_val: "load_images/input_producer/fraction_of_32_full"
      }
    }
  }
}
node {
  name: "load_images/input_producer/fraction_of_32_full"
  op: "ScalarSummary"
  input: "load_images/input_producer/fraction_of_32_full/tags"
  input: "load_images/input_producer/mul"
  attr {
    key: "T"
    value {
      type: DT_FLOAT
    }
  }
  attr {
    key: "_output_shapes"
    value {
      list {
        shape {
        }
      }
    }
  }
}
node {
  name: "load_images/WholeFileReaderV2"
  op: "WholeFileReaderV2"
  attr {
    key: "_output_shapes"
    value {
      list {
        shape {
        }
      }
    }
  }
  attr {
    key: "container"
    value {
      s: ""
    }
  }
  attr {
    key: "shared_name"
    value {
      s: ""
    }
  }
}
node {
  name: "load_images/ReaderReadV2"
  op: "ReaderReadV2"
  input: "load_images/WholeFileReaderV2"
  input: "load_images/input_producer"
  attr {
    key: "_output_shapes"
    value {
      list {
        shape {
        }
        shape {
        }
      }
    }
  }
}
node {
  name: "load_images/DecodePng"
  op: "DecodePng"
  input: "load_images/ReaderReadV2:1"
  attr {
    key: "_output_shapes"
    value {
      list {
        shape {
          dim {
            size: -1
          }
          dim {
            size: -1
          }
          dim {
            size: -1
          }
        }
      }
    }
  }
  attr {
    key: "channels"
    value {
      i: 0
    }
  }
  attr {
    key: "dtype"
    value {
      type: DT_UINT8
    }
  }
}
node {
  name: "load_images/convert_image/Cast"
  op: "Cast"
  input: "load_images/DecodePng"
  attr {
    key: "DstT"
    value {
      type: DT_FLOAT
    }
  }
  attr {
    key: "SrcT"
    value {
      type: DT_UINT8
    }
  }
  attr {
    key: "_output_shapes"
    value {
      list {
        shape {
          dim {
            size: -1
          }
          dim {
            size: -1
          }
          dim {
            size: -1
          }
        }
      }
    }
  }
}
node {
  name: "load_images/convert_image/y"
  op: "Const"
  attr {
    key: "_output_shapes"
    value {
      list {
        shape {
        }
      }
    }
  }
  attr {
    key: "dtype"
    value {
      type: DT_FLOAT
    }
  }
  attr {
    key: "value"
    value {
      tensor {
        dtype: DT_FLOAT
        tensor_shape {
        }
        float_val: 0.003921568859368563
      }
    }
  }
}
node {
  name: "load_images/convert_image"
  op: "Mul"
  input: "load_images/convert_image/Cast"
  input: "load_images/convert_image/y"
  attr {
    key: "T"
    value {
      type: DT_FLOAT
    }
  }
  attr {
    key: "_output_shapes"
    value {
      list {
        shape {
          dim {
            size: -1
          }
          dim {
            size: -1
          }
          dim {
            size: -1
          }
        }
      }
    }
  }
}
node {
  name: "load_images/Shape"
  op: "Shape"
  input: "load_images/convert_image"
  attr {
    key: "T"
    value {
      type: DT_FLOAT
    }
  }
  attr {
    key: "_output_shapes"
    value {
      list {
        shape {
          dim {
            size: 3
          }
        }
      }
    }
  }
  attr {
    key: "out_type"
    value {
      type: DT_INT32
    }
  }
}
node {
  name: "load_images/strided_slice/stack"
  op: "Const"
  attr {
    key: "_output_shapes"
    value {
      list {
        shape {
          dim {
            size: 1
          }
        }
      }
    }
  }
  attr {
    key: "dtype"
    value {
      type: DT_INT32
    }
  }
  attr {
    key: "value"
    value {
      tensor {
        dtype: DT_INT32
        tensor_shape {
          dim {
            size: 1
          }
        }
        int_val: 2
      }
    }
  }
}
node {
  name: "load_images/strided_slice/stack_1"
  op: "Const"
  attr {
    key: "_output_shapes"
    value {
      list {
        shape {
          dim {
            size: 1
          }
        }
      }
    }
  }
  attr {
    key: "dtype"
    value {
      type: DT_INT32
    }
  }
  attr {
    key: "value"
    value {
      tensor {
        dtype: DT_INT32
        tensor_shape {
          dim {
            size: 1
          }
        }
        int_val: 3
      }
    }
  }
}
node {
  name: "load_images/strided_slice/stack_2"
  op: "Const"
  attr {
    key: "_output_shapes"
    value {
      list {
        shape {
          dim {
            size: 1
          }
        }
      }
    }
  }
  attr {
    key: "dtype"
    value {
      type: DT_INT32
    }
  }
  attr {
    key: "value"
    value {
      tensor {
        dtype: DT_INT32
        tensor_shape {
          dim {
            size: 1
          }
        }
        int_val: 1
      }
    }
  }
}
node {
  name: "load_images/strided_slice"
  op: "StridedSlice"
  input: "load_images/Shape"
  input: "load_images/strided_slice/stack"
  input: "load_images/strided_slice/stack_1"
  input: "load_images/strided_slice/stack_2"
  attr {
    key: "Index"
    value {
      type: DT_INT32
    }
  }
  attr {
    key: "T"
    value {
      type: DT_INT32
    }
  }
  attr {
    key: "_output_shapes"
    value {
      list {
        shape {
        }
      }
    }
  }
  attr {
    key: "begin_mask"
    value {
      i: 0
    }
  }
  attr {
    key: "ellipsis_mask"
    value {
      i: 0
    }
  }
  attr {
    key: "end_mask"
    value {
      i: 0
    }
  }
  attr {
    key: "new_axis_mask"
    value {
      i: 0
    }
  }
  attr {
    key: "shrink_axis_mask"
    value {
      i: 1
    }
  }
}
node {
  name: "load_images/assert_equal/y"
  op: "Const"
  attr {
    key: "_output_shapes"
    value {
      list {
        shape {
        }
      }
    }
  }
  attr {
    key: "dtype"
    value {
      type: DT_INT32
    }
  }
  attr {
    key: "value"
    value {
      tensor {
        dtype: DT_INT32
        tensor_shape {
        }
        int_val: 3
      }
    }
  }
}
node {
  name: "load_images/assert_equal/Equal"
  op: "Equal"
  input: "load_images/strided_slice"
  input: "load_images/assert_equal/y"
  attr {
    key: "T"
    value {
      type: DT_INT32
    }
  }
  attr {
    key: "_output_shapes"
    value {
      list {
        shape {
        }
      }
    }
  }
}
node {
  name: "load_images/assert_equal/Const"
  op: "Const"
  attr {
    key: "_output_shapes"
    value {
      list {
        shape {
          dim {
          }
        }
      }
    }
  }
  attr {
    key: "dtype"
    value {
      type: DT_INT32
    }
  }
  attr {
    key: "value"
    value {
      tensor {
        dtype: DT_INT32
        tensor_shape {
          dim {
          }
        }
      }
    }
  }
}
node {
  name: "load_images/assert_equal/All"
  op: "All"
  input: "load_images/assert_equal/Equal"
  input: "load_images/assert_equal/Const"
  attr {
    key: "Tidx"
    value {
      type: DT_INT32
    }
  }
  attr {
    key: "_output_shapes"
    value {
      list {
        shape {
        }
      }
    }
  }
  attr {
    key: "keep_dims"
    value {
      b: false
    }
  }
}
node {
  name: "load_images/assert_equal/Assert/Const"
  op: "Const"
  attr {
    key: "_output_shapes"
    value {
      list {
        shape {
        }
      }
    }
  }
  attr {
    key: "dtype"
    value {
      type: DT_STRING
    }
  }
  attr {
    key: "value"
    value {
      tensor {
        dtype: DT_STRING
        tensor_shape {
        }
        string_val: "image does not have 3 channels"
      }
    }
  }
}
node {
  name: "load_images/assert_equal/Assert/Const_1"
  op: "Const"
  attr {
    key: "_output_shapes"
    value {
      list {
        shape {
        }
      }
    }
  }
  attr {
    key: "dtype"
    value {
      type: DT_STRING
    }
  }
  attr {
    key: "value"
    value {
      tensor {
        dtype: DT_STRING
        tensor_shape {
        }
        string_val: "Condition x == y did not hold element-wise:"
      }
    }
  }
}
node {
  name: "load_images/assert_equal/Assert/Const_2"
  op: "Const"
  attr {
    key: "_output_shapes"
    value {
      list {
        shape {
        }
      }
    }
  }
  attr {
    key: "dtype"
    value {
      type: DT_STRING
    }
  }
  attr {
    key: "value"
    value {
      tensor {
        dtype: DT_STRING
        tensor_shape {
        }
        string_val: "x (load_images/strided_slice:0) = "
      }
    }
  }
}
node {
  name: "load_images/assert_equal/Assert/Const_3"
  op: "Const"
  attr {
    key: "_output_shapes"
    value {
      list {
        shape {
        }
      }
    }
  }
  attr {
    key: "dtype"
    value {
      type: DT_STRING
    }
  }
  attr {
    key: "value"
    value {
      tensor {
        dtype: DT_STRING
        tensor_shape {
        }
        string_val: "y (load_images/assert_equal/y:0) = "
      }
    }
  }
}
node {
  name: "load_images/assert_equal/Assert/Assert/data_0"
  op: "Const"
  attr {
    key: "_output_shapes"
    value {
      list {
        shape {
        }
      }
    }
  }
  attr {
    key: "dtype"
    value {
      type: DT_STRING
    }
  }
  attr {
    key: "value"
    value {
      tensor {
        dtype: DT_STRING
        tensor_shape {
        }
        string_val: "image does not have 3 channels"
      }
    }
  }
}
node {
  name: "load_images/assert_equal/Assert/Assert/data_1"
  op: "Const"
  attr {
    key: "_output_shapes"
    value {
      list {
        shape {
        }
      }
    }
  }
  attr {
    key: "dtype"
    value {
      type: DT_STRING
    }
  }
  attr {
    key: "value"
    value {
      tensor {
        dtype: DT_STRING
        tensor_shape {
        }
        string_val: "Condition x == y did not hold element-wise:"
      }
    }
  }
}
node {
  name: "load_images/assert_equal/Assert/Assert/data_2"
  op: "Const"
  attr {
    key: "_output_shapes"
    value {
      list {
        shape {
        }
      }
    }
  }
  attr {
    key: "dtype"
    value {
      type: DT_STRING
    }
  }
  attr {
    key: "value"
    value {
      tensor {
        dtype: DT_STRING
        tensor_shape {
        }
        string_val: "x (load_images/strided_slice:0) = "
      }
    }
  }
}
node {
  name: "load_images/assert_equal/Assert/Assert/data_4"
  op: "Const"
  attr {
    key: "_output_shapes"
    value {
      list {
        shape {
        }
      }
    }
  }
  attr {
    key: "dtype"
    value {
      type: DT_STRING
    }
  }
  attr {
    key: "value"
    value {
      tensor {
        dtype: DT_STRING
        tensor_shape {
        }
        string_val: "y (load_images/assert_equal/y:0) = "
      }
    }
  }
}
node {
  name: "load_images/assert_equal/Assert/Assert"
  op: "Assert"
  input: "load_images/assert_equal/All"
  input: "load_images/assert_equal/Assert/Assert/data_0"
  input: "load_images/assert_equal/Assert/Assert/data_1"
  input: "load_images/assert_equal/Assert/Assert/data_2"
  input: "load_images/strided_slice"
  input: "load_images/assert_equal/Assert/Assert/data_4"
  input: "load_images/assert_equal/y"
  attr {
    key: "T"
    value {
      list {
        type: DT_STRING
        type: DT_STRING
        type: DT_STRING
        type: DT_INT32
        type: DT_STRING
        type: DT_INT32
      }
    }
  }
  attr {
    key: "summarize"
    value {
      i: 3
    }
  }
}
node {
  name: "load_images/Identity"
  op: "Identity"
  input: "load_images/convert_image"
  input: "^load_images/assert_equal/Assert/Assert"
  attr {
    key: "T"
    value {
      type: DT_FLOAT
    }
  }
  attr {
    key: "_output_shapes"
    value {
      list {
        shape {
          dim {
            size: -1
          }
          dim {
            size: -1
          }
          dim {
            size: 3
          }
        }
      }
    }
  }
}
node {
  name: "load_images/Shape_1"
  op: "Shape"
  input: "load_images/Identity"
  attr {
    key: "T"
    value {
      type: DT_FLOAT
    }
  }
  attr {
    key: "_output_shapes"
    value {
      list {
        shape {
          dim {
            size: 3
          }
        }
      }
    }
  }
  attr {
    key: "out_type"
    value {
      type: DT_INT32
    }
  }
}
node {
  name: "load_images/strided_slice_1/stack"
  op: "Const"
  attr {
    key: "_output_shapes"
    value {
      list {
        shape {
          dim {
            size: 1
          }
        }
      }
    }
  }
  attr {
    key: "dtype"
    value {
      type: DT_INT32
    }
  }
  attr {
    key: "value"
    value {
      tensor {
        dtype: DT_INT32
        tensor_shape {
          dim {
            size: 1
          }
        }
        int_val: 1
      }
    }
  }
}
node {
  name: "load_images/strided_slice_1/stack_1"
  op: "Const"
  attr {
    key: "_output_shapes"
    value {
      list {
        shape {
          dim {
            size: 1
          }
        }
      }
    }
  }
  attr {
    key: "dtype"
    value {
      type: DT_INT32
    }
  }
  attr {
    key: "value"
    value {
      tensor {
        dtype: DT_INT32
        tensor_shape {
          dim {
            size: 1
          }
        }
        int_val: 2
      }
    }
  }
}
node {
  name: "load_images/strided_slice_1/stack_2"
  op: "Const"
  attr {
    key: "_output_shapes"
    value {
      list {
        shape {
          dim {
            size: 1
          }
        }
      }
    }
  }
  attr {
    key: "dtype"
    value {
      type: DT_INT32
    }
  }
  attr {
    key: "value"
    value {
      tensor {
        dtype: DT_INT32
        tensor_shape {
          dim {
            size: 1
          }
        }
        int_val: 1
      }
    }
  }
}
node {
  name: "load_images/strided_slice_1"
  op: "StridedSlice"
  input: "load_images/Shape_1"
  input: "load_images/strided_slice_1/stack"
  input: "load_images/strided_slice_1/stack_1"
  input: "load_images/strided_slice_1/stack_2"
  attr {
    key: "Index"
    value {
      type: DT_INT32
    }
  }
  attr {
    key: "T"
    value {
      type: DT_INT32
    }
  }
  attr {
    key: "_output_shapes"
    value {
      list {
        shape {
        }
      }
    }
  }
  attr {
    key: "begin_mask"
    value {
      i: 0
    }
  }
  attr {
    key: "ellipsis_mask"
    value {
      i: 0
    }
  }
  attr {
    key: "end_mask"
    value {
      i: 0
    }
  }
  attr {
    key: "new_axis_mask"
    value {
      i: 0
    }
  }
  attr {
    key: "shrink_axis_mask"
    value {
      i: 1
    }
  }
}
node {
  name: "load_images/floordiv/y"
  op: "Const"
  attr {
    key: "_output_shapes"
    value {
      list {
        shape {
        }
      }
    }
  }
  attr {
    key: "dtype"
    value {
      type: DT_INT32
    }
  }
  attr {
    key: "value"
    value {
      tensor {
        dtype: DT_INT32
        tensor_shape {
        }
        int_val: 2
      }
    }
  }
}
node {
  name: "load_images/floordiv"
  op: "FloorDiv"
  input: "load_images/strided_slice_1"
  input: "load_images/floordiv/y"
  attr {
    key: "T"
    value {
      type: DT_INT32
    }
  }
  attr {
    key: "_output_shapes"
    value {
      list {
        shape {
        }
      }
    }
  }
}
node {
  name: "load_images/strided_slice_2/stack"
  op: "Const"
  attr {
    key: "_output_shapes"
    value {
      list {
        shape {
          dim {
            size: 3
          }
        }
      }
    }
  }
  attr {
    key: "dtype"
    value {
      type: DT_INT32
    }
  }
  attr {
    key: "value"
    value {
      tensor {
        dtype: DT_INT32
        tensor_shape {
          dim {
            size: 3
          }
        }
        tensor_content: "\000\000\000\000\000\000\000\000\000\000\000\000"
      }
    }
  }
}
node {
  name: "load_images/strided_slice_2/stack_1/0"
  op: "Const"
  attr {
    key: "_output_shapes"
    value {
      list {
        shape {
        }
      }
    }
  }
  attr {
    key: "dtype"
    value {
      type: DT_INT32
    }
  }
  attr {
    key: "value"
    value {
      tensor {
        dtype: DT_INT32
        tensor_shape {
        }
        int_val: 0
      }
    }
  }
}
node {
  name: "load_images/strided_slice_2/stack_1/2"
  op: "Const"
  attr {
    key: "_output_shapes"
    value {
      list {
        shape {
        }
      }
    }
  }
  attr {
    key: "dtype"
    value {
      type: DT_INT32
    }
  }
  attr {
    key: "value"
    value {
      tensor {
        dtype: DT_INT32
        tensor_shape {
        }
        int_val: 0
      }
    }
  }
}
node {
  name: "load_images/strided_slice_2/stack_1"
  op: "Pack"
  input: "load_images/strided_slice_2/stack_1/0"
  input: "load_images/floordiv"
  input: "load_images/strided_slice_2/stack_1/2"
  attr {
    key: "N"
    value {
      i: 3
    }
  }
  attr {
    key: "T"
    value {
      type: DT_INT32
    }
  }
  attr {
    key: "_output_shapes"
    value {
      list {
        shape {
          dim {
            size: 3
          }
        }
      }
    }
  }
  attr {
    key: "axis"
    value {
      i: 0
    }
  }
}
node {
  name: "load_images/strided_slice_2/stack_2"
  op: "Const"
  attr {
    key: "_output_shapes"
    value {
      list {
        shape {
          dim {
            size: 3
          }
        }
      }
    }
  }
  attr {
    key: "dtype"
    value {
      type: DT_INT32
    }
  }
  attr {
    key: "value"
    value {
      tensor {
        dtype: DT_INT32
        tensor_shape {
          dim {
            size: 3
          }
        }
        tensor_content: "\001\000\000\000\001\000\000\000\001\000\000\000"
      }
    }
  }
}
node {
  name: "load_images/strided_slice_2"
  op: "StridedSlice"
  input: "load_images/Identity"
  input: "load_images/strided_slice_2/stack"
  input: "load_images/strided_slice_2/stack_1"
  input: "load_images/strided_slice_2/stack_2"
  attr {
    key: "Index"
    value {
      type: DT_INT32
    }
  }
  attr {
    key: "T"
    value {
      type: DT_FLOAT
    }
  }
  attr {
    key: "_output_shapes"
    value {
      list {
        shape {
          dim {
            size: -1
          }
          dim {
            size: -1
          }
          dim {
            size: 3
          }
        }
      }
    }
  }
  attr {
    key: "begin_mask"
    value {
      i: 7
    }
  }
  attr {
    key: "ellipsis_mask"
    value {
      i: 0
    }
  }
  attr {
    key: "end_mask"
    value {
      i: 5
    }
  }
  attr {
    key: "new_axis_mask"
    value {
      i: 0
    }
  }
  attr {
    key: "shrink_axis_mask"
    value {
      i: 0
    }
  }
}
node {
  name: "load_images/preprocess/mul/y"
  op: "Const"
  attr {
    key: "_output_shapes"
    value {
      list {
        shape {
        }
      }
    }
  }
  attr {
    key: "dtype"
    value {
      type: DT_FLOAT
    }
  }
  attr {
    key: "value"
    value {
      tensor {
        dtype: DT_FLOAT
        tensor_shape {
        }
        float_val: 2.0
      }
    }
  }
}
node {
  name: "load_images/preprocess/mul"
  op: "Mul"
  input: "load_images/strided_slice_2"
  input: "load_images/preprocess/mul/y"
  attr {
    key: "T"
    value {
      type: DT_FLOAT
    }
  }
  attr {
    key: "_output_shapes"
    value {
      list {
        shape {
          dim {
            size: -1
          }
          dim {
            size: -1
          }
          dim {
            size: 3
          }
        }
      }
    }
  }
}
node {
  name: "load_images/preprocess/sub/y"
  op: "Const"
  attr {
    key: "_output_shapes"
    value {
      list {
        shape {
        }
      }
    }
  }
  attr {
    key: "dtype"
    value {
      type: DT_FLOAT
    }
  }
  attr {
    key: "value"
    value {
      tensor {
        dtype: DT_FLOAT
        tensor_shape {
        }
        float_val: 1.0
      }
    }
  }
}
node {
  name: "load_images/preprocess/sub"
  op: "Sub"
  input: "load_images/preprocess/mul"
  input: "load_images/preprocess/sub/y"
  attr {
    key: "T"
    value {
      type: DT_FLOAT
    }
  }
  attr {
    key: "_output_shapes"
    value {
      list {
        shape {
          dim {
            size: -1
          }
          dim {
            size: -1
          }
          dim {
            size: 3
          }
        }
      }
    }
  }
}
node {
  name: "load_images/floordiv_1/y"
  op: "Const"
  attr {
    key: "_output_shapes"
    value {
      list {
        shape {
        }
      }
    }
  }
  attr {
    key: "dtype"
    value {
      type: DT_INT32
    }
  }
  attr {
    key: "value"
    value {
      tensor {
        dtype: DT_INT32
        tensor_shape {
        }
        int_val: 2
      }
    }
  }
}
node {
  name: "load_images/floordiv_1"
  op: "FloorDiv"
  input: "load_images/strided_slice_1"
  input: "load_images/floordiv_1/y"
  attr {
    key: "T"
    value {
      type: DT_INT32
    }
  }
  attr {
    key: "_output_shapes"
    value {
      list {
        shape {
        }
      }
    }
  }
}
node {
  name: "load_images/strided_slice_3/stack/0"
  op: "Const"
  attr {
    key: "_output_shapes"
    value {
      list {
        shape {
        }
      }
    }
  }
  attr {
    key: "dtype"
    value {
      type: DT_INT32
    }
  }
  attr {
    key: "value"
    value {
      tensor {
        dtype: DT_INT32
        tensor_shape {
        }
        int_val: 0
      }
    }
  }
}
node {
  name: "load_images/strided_slice_3/stack/2"
  op: "Const"
  attr {
    key: "_output_shapes"
    value {
      list {
        shape {
        }
      }
    }
  }
  attr {
    key: "dtype"
    value {
      type: DT_INT32
    }
  }
  attr {
    key: "value"
    value {
      tensor {
        dtype: DT_INT32
        tensor_shape {
        }
        int_val: 0
      }
    }
  }
}
node {
  name: "load_images/strided_slice_3/stack"
  op: "Pack"
  input: "load_images/strided_slice_3/stack/0"
  input: "load_images/floordiv_1"
  input: "load_images/strided_slice_3/stack/2"
  attr {
    key: "N"
    value {
      i: 3
    }
  }
  attr {
    key: "T"
    value {
      type: DT_INT32
    }
  }
  attr {
    key: "_output_shapes"
    value {
      list {
        shape {
          dim {
            size: 3
          }
        }
      }
    }
  }
  attr {
    key: "axis"
    value {
      i: 0
    }
  }
}
node {
  name: "load_images/strided_slice_3/stack_1"
  op: "Const"
  attr {
    key: "_output_shapes"
    value {
      list {
        shape {
          dim {
            size: 3
          }
        }
      }
    }
  }
  attr {
    key: "dtype"
    value {
      type: DT_INT32
    }
  }
  attr {
    key: "value"
    value {
      tensor {
        dtype: DT_INT32
        tensor_shape {
          dim {
            size: 3
          }
        }
        tensor_content: "\000\000\000\000\000\000\000\000\000\000\000\000"
      }
    }
  }
}
node {
  name: "load_images/strided_slice_3/stack_2"
  op: "Const"
  attr {
    key: "_output_shapes"
    value {
      list {
        shape {
          dim {
            size: 3
          }
        }
      }
    }
  }
  attr {
    key: "dtype"
    value {
      type: DT_INT32
    }
  }
  attr {
    key: "value"
    value {
      tensor {
        dtype: DT_INT32
        tensor_shape {
          dim {
            size: 3
          }
        }
        tensor_content: "\001\000\000\000\001\000\000\000\001\000\000\000"
      }
    }
  }
}
node {
  name: "load_images/strided_slice_3"
  op: "StridedSlice"
  input: "load_images/Identity"
  input: "load_images/strided_slice_3/stack"
  input: "load_images/strided_slice_3/stack_1"
  input: "load_images/strided_slice_3/stack_2"
  attr {
    key: "Index"
    value {
      type: DT_INT32
    }
  }
  attr {
    key: "T"
    value {
      type: DT_FLOAT
    }
  }
  attr {
    key: "_output_shapes"
    value {
      list {
        shape {
          dim {
            size: -1
          }
          dim {
            size: -1
          }
          dim {
            size: 3
          }
        }
      }
    }
  }
  attr {
    key: "begin_mask"
    value {
      i: 5
    }
  }
  attr {
    key: "ellipsis_mask"
    value {
      i: 0
    }
  }
  attr {
    key: "end_mask"
    value {
      i: 7
    }
  }
  attr {
    key: "new_axis_mask"
    value {
      i: 0
    }
  }
  attr {
    key: "shrink_axis_mask"
    value {
      i: 0
    }
  }
}
node {
  name: "load_images/preprocess_1/mul/y"
  op: "Const"
  attr {
    key: "_output_shapes"
    value {
      list {
        shape {
        }
      }
    }
  }
  attr {
    key: "dtype"
    value {
      type: DT_FLOAT
    }
  }
  attr {
    key: "value"
    value {
      tensor {
        dtype: DT_FLOAT
        tensor_shape {
        }
        float_val: 2.0
      }
    }
  }
}
node {
  name: "load_images/preprocess_1/mul"
  op: "Mul"
  input: "load_images/strided_slice_3"
  input: "load_images/preprocess_1/mul/y"
  attr {
    key: "T"
    value {
      type: DT_FLOAT
    }
  }
  attr {
    key: "_output_shapes"
    value {
      list {
        shape {
          dim {
            size: -1
          }
          dim {
            size: -1
          }
          dim {
            size: 3
          }
        }
      }
    }
  }
}
node {
  name: "load_images/preprocess_1/sub/y"
  op: "Const"
  attr {
    key: "_output_shapes"
    value {
      list {
        shape {
        }
      }
    }
  }
  attr {
    key: "dtype"
    value {
      type: DT_FLOAT
    }
  }
  attr {
    key: "value"
    value {
      tensor {
        dtype: DT_FLOAT
        tensor_shape {
        }
        float_val: 1.0
      }
    }
  }
}
node {
  name: "load_images/preprocess_1/sub"
  op: "Sub"
  input: "load_images/preprocess_1/mul"
  input: "load_images/preprocess_1/sub/y"
  attr {
    key: "T"
    value {
      type: DT_FLOAT
    }
  }
  attr {
    key: "_output_shapes"
    value {
      list {
        shape {
          dim {
            size: -1
          }
          dim {
            size: -1
          }
          dim {
            size: 3
          }
        }
      }
    }
  }
}
node {
  name: "input_images/resize_images/ExpandDims/dim"
  op: "Const"
  attr {
    key: "_output_shapes"
    value {
      list {
        shape {
        }
      }
    }
  }
  attr {
    key: "dtype"
    value {
      type: DT_INT32
    }
  }
  attr {
    key: "value"
    value {
      tensor {
        dtype: DT_INT32
        tensor_shape {
        }
        int_val: 0
      }
    }
  }
}
node {
  name: "input_images/resize_images/ExpandDims"
  op: "ExpandDims"
  input: "load_images/preprocess/sub"
  input: "input_images/resize_images/ExpandDims/dim"
  attr {
    key: "T"
    value {
      type: DT_FLOAT
    }
  }
  attr {
    key: "Tdim"
    value {
      type: DT_INT32
    }
  }
  attr {
    key: "_output_shapes"
    value {
      list {
        shape {
          dim {
            size: 1
          }
          dim {
            size: -1
          }
          dim {
            size: -1
          }
          dim {
            size: 3
          }
        }
      }
    }
  }
}
node {
  name: "input_images/resize_images/size"
  op: "Const"
  attr {
    key: "_output_shapes"
    value {
      list {
        shape {
          dim {
            size: 2
          }
        }
      }
    }
  }
  attr {
    key: "dtype"
    value {
      type: DT_INT32
    }
  }
  attr {
    key: "value"
    value {
      tensor {
        dtype: DT_INT32
        tensor_shape {
          dim {
            size: 2
          }
        }
        tensor_content: "\000\001\000\000\000\001\000\000"
      }
    }
  }
}
node {
  name: "input_images/resize_images/ResizeArea"
  op: "ResizeArea"
  input: "input_images/resize_images/ExpandDims"
  input: "input_images/resize_images/size"
  attr {
    key: "T"
    value {
      type: DT_FLOAT
    }
  }
  attr {
    key: "_output_shapes"
    value {
      list {
        shape {
          dim {
            size: 1
          }
          dim {
            size: 256
          }
          dim {
            size: 256
          }
          dim {
            size: 3
          }
        }
      }
    }
  }
  attr {
    key: "align_corners"
    value {
      b: false
    }
  }
}
node {
  name: "input_images/resize_images/Squeeze"
  op: "Squeeze"
  input: "input_images/resize_images/ResizeArea"
  attr {
    key: "T"
    value {
      type: DT_FLOAT
    }
  }
  attr {
    key: "_output_shapes"
    value {
      list {
        shape {
          dim {
            size: 256
          }
          dim {
            size: 256
          }
          dim {
            size: 3
          }
        }
      }
    }
  }
  attr {
    key: "squeeze_dims"
    value {
      list {
        i: 0
      }
    }
  }
}
node {
  name: "input_images/random_uniform/shape"
  op: "Const"
  attr {
    key: "_output_shapes"
    value {
      list {
        shape {
          dim {
            size: 1
          }
        }
      }
    }
  }
  attr {
    key: "dtype"
    value {
      type: DT_INT32
    }
  }
  attr {
    key: "value"
    value {
      tensor {
        dtype: DT_INT32
        tensor_shape {
          dim {
            size: 1
          }
        }
        int_val: 2
      }
    }
  }
}
node {
  name: "input_images/random_uniform/min"
  op: "Const"
  attr {
    key: "_output_shapes"
    value {
      list {
        shape {
        }
      }
    }
  }
  attr {
    key: "dtype"
    value {
      type: DT_FLOAT
    }
  }
  attr {
    key: "value"
    value {
      tensor {
        dtype: DT_FLOAT
        tensor_shape {
        }
        float_val: 0.0
      }
    }
  }
}
node {
  name: "input_images/random_uniform/max"
  op: "Const"
  attr {
    key: "_output_shapes"
    value {
      list {
        shape {
        }
      }
    }
  }
  attr {
    key: "dtype"
    value {
      type: DT_FLOAT
    }
  }
  attr {
    key: "value"
    value {
      tensor {
        dtype: DT_FLOAT
        tensor_shape {
        }
        float_val: 1.0
      }
    }
  }
}
node {
  name: "input_images/random_uniform/RandomUniform"
  op: "RandomUniform"
  input: "input_images/random_uniform/shape"
  attr {
    key: "T"
    value {
      type: DT_INT32
    }
  }
  attr {
    key: "_output_shapes"
    value {
      list {
        shape {
          dim {
            size: 2
          }
        }
      }
    }
  }
  attr {
    key: "dtype"
    value {
      type: DT_FLOAT
    }
  }
  attr {
    key: "seed"
    value {
      i: 514729969
    }
  }
  attr {
    key: "seed2"
    value {
      i: 1311378507
    }
  }
}
node {
  name: "input_images/random_uniform/sub"
  op: "Sub"
  input: "input_images/random_uniform/max"
  input: "input_images/random_uniform/min"
  attr {
    key: "T"
    value {
      type: DT_FLOAT
    }
  }
  attr {
    key: "_output_shapes"
    value {
      list {
        shape {
        }
      }
    }
  }
}
node {
  name: "input_images/random_uniform/mul"
  op: "Mul"
  input: "input_images/random_uniform/RandomUniform"
  input: "input_images/random_uniform/sub"
  attr {
    key: "T"
    value {
      type: DT_FLOAT
    }
  }
  attr {
    key: "_output_shapes"
    value {
      list {
        shape {
          dim {
            size: 2
          }
        }
      }
    }
  }
}
node {
  name: "input_images/random_uniform"
  op: "Add"
  input: "input_images/random_uniform/mul"
  input: "input_images/random_uniform/min"
  attr {
    key: "T"
    value {
      type: DT_FLOAT
    }
  }
  attr {
    key: "_output_shapes"
    value {
      list {
        shape {
          dim {
            size: 2
          }
        }
      }
    }
  }
}
node {
  name: "input_images/Floor"
  op: "Floor"
  input: "input_images/random_uniform"
  attr {
    key: "T"
    value {
      type: DT_FLOAT
    }
  }
  attr {
    key: "_output_shapes"
    value {
      list {
        shape {
          dim {
            size: 2
          }
        }
      }
    }
  }
}
node {
  name: "input_images/Cast"
  op: "Cast"
  input: "input_images/Floor"
  attr {
    key: "DstT"
    value {
      type: DT_INT32
    }
  }
  attr {
    key: "SrcT"
    value {
      type: DT_FLOAT
    }
  }
  attr {
    key: "_output_shapes"
    value {
      list {
        shape {
          dim {
            size: 2
          }
        }
      }
    }
  }
}
node {
  name: "target_images/resize_images/ExpandDims/dim"
  op: "Const"
  attr {
    key: "_output_shapes"
    value {
      list {
        shape {
        }
      }
    }
  }
  attr {
    key: "dtype"
    value {
      type: DT_INT32
    }
  }
  attr {
    key: "value"
    value {
      tensor {
        dtype: DT_INT32
        tensor_shape {
        }
        int_val: 0
      }
    }
  }
}
node {
  name: "target_images/resize_images/ExpandDims"
  op: "ExpandDims"
  input: "load_images/preprocess_1/sub"
  input: "target_images/resize_images/ExpandDims/dim"
  attr {
    key: "T"
    value {
      type: DT_FLOAT
    }
  }
  attr {
    key: "Tdim"
    value {
      type: DT_INT32
    }
  }
  attr {
    key: "_output_shapes"
    value {
      list {
        shape {
          dim {
            size: 1
          }
          dim {
            size: -1
          }
          dim {
            size: -1
          }
          dim {
            size: 3
          }
        }
      }
    }
  }
}
node {
  name: "target_images/resize_images/size"
  op: "Const"
  attr {
    key: "_output_shapes"
    value {
      list {
        shape {
          dim {
            size: 2
          }
        }
      }
    }
  }
  attr {
    key: "dtype"
    value {
      type: DT_INT32
    }
  }
  attr {
    key: "value"
    value {
      tensor {
        dtype: DT_INT32
        tensor_shape {
          dim {
            size: 2
          }
        }
        tensor_content: "\000\001\000\000\000\001\000\000"
      }
    }
  }
}
node {
  name: "target_images/resize_images/ResizeArea"
  op: "ResizeArea"
  input: "target_images/resize_images/ExpandDims"
  input: "target_images/resize_images/size"
  attr {
    key: "T"
    value {
      type: DT_FLOAT
    }
  }
  attr {
    key: "_output_shapes"
    value {
      list {
        shape {
          dim {
            size: 1
          }
          dim {
            size: 256
          }
          dim {
            size: 256
          }
          dim {
            size: 3
          }
        }
      }
    }
  }
  attr {
    key: "align_corners"
    value {
      b: false
    }
  }
}
node {
  name: "target_images/resize_images/Squeeze"
  op: "Squeeze"
  input: "target_images/resize_images/ResizeArea"
  attr {
    key: "T"
    value {
      type: DT_FLOAT
    }
  }
  attr {
    key: "_output_shapes"
    value {
      list {
        shape {
          dim {
            size: 256
          }
          dim {
            size: 256
          }
          dim {
            size: 3
          }
        }
      }
    }
  }
  attr {
    key: "squeeze_dims"
    value {
      list {
        i: 0
      }
    }
  }
}
node {
  name: "target_images/random_uniform/shape"
  op: "Const"
  attr {
    key: "_output_shapes"
    value {
      list {
        shape {
          dim {
            size: 1
          }
        }
      }
    }
  }
  attr {
    key: "dtype"
    value {
      type: DT_INT32
    }
  }
  attr {
    key: "value"
    value {
      tensor {
        dtype: DT_INT32
        tensor_shape {
          dim {
            size: 1
          }
        }
        int_val: 2
      }
    }
  }
}
node {
  name: "target_images/random_uniform/min"
  op: "Const"
  attr {
    key: "_output_shapes"
    value {
      list {
        shape {
        }
      }
    }
  }
  attr {
    key: "dtype"
    value {
      type: DT_FLOAT
    }
  }
  attr {
    key: "value"
    value {
      tensor {
        dtype: DT_FLOAT
        tensor_shape {
        }
        float_val: 0.0
      }
    }
  }
}
node {
  name: "target_images/random_uniform/max"
  op: "Const"
  attr {
    key: "_output_shapes"
    value {
      list {
        shape {
        }
      }
    }
  }
  attr {
    key: "dtype"
    value {
      type: DT_FLOAT
    }
  }
  attr {
    key: "value"
    value {
      tensor {
        dtype: DT_FLOAT
        tensor_shape {
        }
        float_val: 1.0
      }
    }
  }
}
node {
  name: "target_images/random_uniform/RandomUniform"
  op: "RandomUniform"
  input: "target_images/random_uniform/shape"
  attr {
    key: "T"
    value {
      type: DT_INT32
    }
  }
  attr {
    key: "_output_shapes"
    value {
      list {
        shape {
          dim {
            size: 2
          }
        }
      }
    }
  }
  attr {
    key: "dtype"
    value {
      type: DT_FLOAT
    }
  }
  attr {
    key: "seed"
    value {
      i: 514729969
    }
  }
  attr {
    key: "seed2"
    value {
      i: 1311378507
    }
  }
}
node {
  name: "target_images/random_uniform/sub"
  op: "Sub"
  input: "target_images/random_uniform/max"
  input: "target_images/random_uniform/min"
  attr {
    key: "T"
    value {
      type: DT_FLOAT
    }
  }
  attr {
    key: "_output_shapes"
    value {
      list {
        shape {
        }
      }
    }
  }
}
node {
  name: "target_images/random_uniform/mul"
  op: "Mul"
  input: "target_images/random_uniform/RandomUniform"
  input: "target_images/random_uniform/sub"
  attr {
    key: "T"
    value {
      type: DT_FLOAT
    }
  }
  attr {
    key: "_output_shapes"
    value {
      list {
        shape {
          dim {
            size: 2
          }
        }
      }
    }
  }
}
node {
  name: "target_images/random_uniform"
  op: "Add"
  input: "target_images/random_uniform/mul"
  input: "target_images/random_uniform/min"
  attr {
    key: "T"
    value {
      type: DT_FLOAT
    }
  }
  attr {
    key: "_output_shapes"
    value {
      list {
        shape {
          dim {
            size: 2
          }
        }
      }
    }
  }
}
node {
  name: "target_images/Floor"
  op: "Floor"
  input: "target_images/random_uniform"
  attr {
    key: "T"
    value {
      type: DT_FLOAT
    }
  }
  attr {
    key: "_output_shapes"
    value {
      list {
        shape {
          dim {
            size: 2
          }
        }
      }
    }
  }
}
node {
  name: "target_images/Cast"
  op: "Cast"
  input: "target_images/Floor"
  attr {
    key: "DstT"
    value {
      type: DT_INT32
    }
  }
  attr {
    key: "SrcT"
    value {
      type: DT_FLOAT
    }
  }
  attr {
    key: "_output_shapes"
    value {
      list {
        shape {
          dim {
            size: 2
          }
        }
      }
    }
  }
}
node {
  name: "batch/Const"
  op: "Const"
  attr {
    key: "_output_shapes"
    value {
      list {
        shape {
        }
      }
    }
  }
  attr {
    key: "dtype"
    value {
      type: DT_BOOL
    }
  }
  attr {
    key: "value"
    value {
      tensor {
        dtype: DT_BOOL
        tensor_shape {
        }
        bool_val: true
      }
    }
  }
}
node {
  name: "batch/fifo_queue"
  op: "FIFOQueueV2"
  attr {
    key: "_output_shapes"
    value {
      list {
        shape {
        }
      }
    }
  }
  attr {
    key: "capacity"
    value {
      i: 32
    }
  }
  attr {
    key: "component_types"
    value {
      list {
        type: DT_STRING
        type: DT_FLOAT
        type: DT_FLOAT
      }
    }
  }
  attr {
    key: "container"
    value {
      s: ""
    }
  }
  attr {
    key: "shapes"
    value {
      list {
        shape {
        }
        shape {
          dim {
            size: 256
          }
          dim {
            size: 256
          }
          dim {
            size: 3
          }
        }
        shape {
          dim {
            size: 256
          }
          dim {
            size: 256
          }
          dim {
            size: 3
          }
        }
      }
    }
  }
  attr {
    key: "shared_name"
    value {
      s: ""
    }
  }
}
node {
  name: "batch/fifo_queue_enqueue"
  op: "QueueEnqueueV2"
  input: "batch/fifo_queue"
  input: "load_images/ReaderReadV2"
  input: "input_images/resize_images/Squeeze"
  input: "target_images/resize_images/Squeeze"
  attr {
    key: "Tcomponents"
    value {
      list {
        type: DT_STRING
        type: DT_FLOAT
        type: DT_FLOAT
      }
    }
  }
  attr {
    key: "timeout_ms"
    value {
      i: -1
    }
  }
}
node {
  name: "batch/fifo_queue_Close"
  op: "QueueCloseV2"
  input: "batch/fifo_queue"
  attr {
    key: "cancel_pending_enqueues"
    value {
      b: false
    }
  }
}
node {
  name: "batch/fifo_queue_Close_1"
  op: "QueueCloseV2"
  input: "batch/fifo_queue"
  attr {
    key: "cancel_pending_enqueues"
    value {
      b: true
    }
  }
}
node {
  name: "batch/fifo_queue_Size"
  op: "QueueSizeV2"
  input: "batch/fifo_queue"
  attr {
    key: "_output_shapes"
    value {
      list {
        shape {
        }
      }
    }
  }
}
node {
  name: "batch/ToFloat"
  op: "Cast"
  input: "batch/fifo_queue_Size"
  attr {
    key: "DstT"
    value {
      type: DT_FLOAT
    }
  }
  attr {
    key: "SrcT"
    value {
      type: DT_INT32
    }
  }
  attr {
    key: "_output_shapes"
    value {
      list {
        shape {
        }
      }
    }
  }
}
node {
  name: "batch/mul/y"
  op: "Const"
  attr {
    key: "_output_shapes"
    value {
      list {
        shape {
        }
      }
    }
  }
  attr {
    key: "dtype"
    value {
      type: DT_FLOAT
    }
  }
  attr {
    key: "value"
    value {
      tensor {
        dtype: DT_FLOAT
        tensor_shape {
        }
        float_val: 0.03125
      }
    }
  }
}
node {
  name: "batch/mul"
  op: "Mul"
  input: "batch/ToFloat"
  input: "batch/mul/y"
  attr {
    key: "T"
    value {
      type: DT_FLOAT
    }
  }
  attr {
    key: "_output_shapes"
    value {
      list {
        shape {
        }
      }
    }
  }
}
node {
  name: "batch/fraction_of_32_full/tags"
  op: "Const"
  attr {
    key: "_output_shapes"
    value {
      list {
        shape {
        }
      }
    }
  }
  attr {
    key: "dtype"
    value {
      type: DT_STRING
    }
  }
  attr {
    key: "value"
    value {
      tensor {
        dtype: DT_STRING
        tensor_shape {
        }
        string_val: "batch/fraction_of_32_full"
      }
    }
  }
}
node {
  name: "batch/fraction_of_32_full"
  op: "ScalarSummary"
  input: "batch/fraction_of_32_full/tags"
  input: "batch/mul"
  attr {
    key: "T"
    value {
      type: DT_FLOAT
    }
  }
  attr {
    key: "_output_shapes"
    value {
      list {
        shape {
        }
      }
    }
  }
}
node {
  name: "batch/n"
  op: "Const"
  attr {
    key: "_output_shapes"
    value {
      list {
        shape {
        }
      }
    }
  }
  attr {
    key: "dtype"
    value {
      type: DT_INT32
    }
  }
  attr {
    key: "value"
    value {
      tensor {
        dtype: DT_INT32
        tensor_shape {
        }
        int_val: 1
      }
    }
  }
}
node {
  name: "batch"
  op: "QueueDequeueManyV2"
  input: "batch/fifo_queue"
  input: "batch/n"
  attr {
    key: "_output_shapes"
    value {
      list {
        shape {
          dim {
            size: 1
          }
        }
        shape {
          dim {
            size: 1
          }
          dim {
            size: 256
          }
          dim {
            size: 256
          }
          dim {
            size: 3
          }
        }
        shape {
          dim {
            size: 1
          }
          dim {
            size: 256
          }
          dim {
            size: 256
          }
          dim {
            size: 3
          }
        }
      }
    }
  }
  attr {
    key: "component_types"
    value {
      list {
        type: DT_STRING
        type: DT_FLOAT
        type: DT_FLOAT
      }
    }
  }
  attr {
    key: "timeout_ms"
    value {
      i: -1
    }
  }
}
node {
  name: "generator/encoder_1/conv2d/kernel/Initializer/random_normal/shape"
  op: "Const"
  attr {
    key: "_class"
    value {
      list {
        s: "loc:@generator/encoder_1/conv2d/kernel"
      }
    }
  }
  attr {
    key: "_output_shapes"
    value {
      list {
        shape {
          dim {
            size: 4
          }
        }
      }
    }
  }
  attr {
    key: "dtype"
    value {
      type: DT_INT32
    }
  }
  attr {
    key: "value"
    value {
      tensor {
        dtype: DT_INT32
        tensor_shape {
          dim {
            size: 4
          }
        }
        tensor_content: "\004\000\000\000\004\000\000\000\003\000\000\000@\000\000\000"
      }
    }
  }
}
node {
  name: "generator/encoder_1/conv2d/kernel/Initializer/random_normal/mean"
  op: "Const"
  attr {
    key: "_class"
    value {
      list {
        s: "loc:@generator/encoder_1/conv2d/kernel"
      }
    }
  }
  attr {
    key: "_output_shapes"
    value {
      list {
        shape {
        }
      }
    }
  }
  attr {
    key: "dtype"
    value {
      type: DT_FLOAT
    }
  }
  attr {
    key: "value"
    value {
      tensor {
        dtype: DT_FLOAT
        tensor_shape {
        }
        float_val: 0.0
      }
    }
  }
}
node {
  name: "generator/encoder_1/conv2d/kernel/Initializer/random_normal/stddev"
  op: "Const"
  attr {
    key: "_class"
    value {
      list {
        s: "loc:@generator/encoder_1/conv2d/kernel"
      }
    }
  }
  attr {
    key: "_output_shapes"
    value {
      list {
        shape {
        }
      }
    }
  }
  attr {
    key: "dtype"
    value {
      type: DT_FLOAT
    }
  }
  attr {
    key: "value"
    value {
      tensor {
        dtype: DT_FLOAT
        tensor_shape {
        }
        float_val: 0.019999999552965164
      }
    }
  }
}
node {
  name: "generator/encoder_1/conv2d/kernel/Initializer/random_normal/RandomStandardNormal"
  op: "RandomStandardNormal"
  input: "generator/encoder_1/conv2d/kernel/Initializer/random_normal/shape"
  attr {
    key: "T"
    value {
      type: DT_INT32
    }
  }
  attr {
    key: "_class"
    value {
      list {
        s: "loc:@generator/encoder_1/conv2d/kernel"
      }
    }
  }
  attr {
    key: "_output_shapes"
    value {
      list {
        shape {
          dim {
            size: 4
          }
          dim {
            size: 4
          }
          dim {
            size: 3
          }
          dim {
            size: 64
          }
        }
      }
    }
  }
  attr {
    key: "dtype"
    value {
      type: DT_FLOAT
    }
  }
  attr {
    key: "seed"
    value {
      i: 514729969
    }
  }
  attr {
    key: "seed2"
    value {
      i: 116
    }
  }
}
node {
  name: "generator/encoder_1/conv2d/kernel/Initializer/random_normal/mul"
  op: "Mul"
  input: "generator/encoder_1/conv2d/kernel/Initializer/random_normal/RandomStandardNormal"
  input: "generator/encoder_1/conv2d/kernel/Initializer/random_normal/stddev"
  attr {
    key: "T"
    value {
      type: DT_FLOAT
    }
  }
  attr {
    key: "_class"
    value {
      list {
        s: "loc:@generator/encoder_1/conv2d/kernel"
      }
    }
  }
  attr {
    key: "_output_shapes"
    value {
      list {
        shape {
          dim {
            size: 4
          }
          dim {
            size: 4
          }
          dim {
            size: 3
          }
          dim {
            size: 64
          }
        }
      }
    }
  }
}
node {
  name: "generator/encoder_1/conv2d/kernel/Initializer/random_normal"
  op: "Add"
  input: "generator/encoder_1/conv2d/kernel/Initializer/random_normal/mul"
  input: "generator/encoder_1/conv2d/kernel/Initializer/random_normal/mean"
  attr {
    key: "T"
    value {
      type: DT_FLOAT
    }
  }
  attr {
    key: "_class"
    value {
      list {
        s: "loc:@generator/encoder_1/conv2d/kernel"
      }
    }
  }
  attr {
    key: "_output_shapes"
    value {
      list {
        shape {
          dim {
            size: 4
          }
          dim {
            size: 4
          }
          dim {
            size: 3
          }
          dim {
            size: 64
          }
        }
      }
    }
  }
}
node {
  name: "generator/encoder_1/conv2d/kernel"
  op: "VariableV2"
  attr {
    key: "_class"
    value {
      list {
        s: "loc:@generator/encoder_1/conv2d/kernel"
      }
    }
  }
  attr {
    key: "_output_shapes"
    value {
      list {
        shape {
          dim {
            size: 4
          }
          dim {
            size: 4
          }
          dim {
            size: 3
          }
          dim {
            size: 64
          }
        }
      }
    }
  }
  attr {
    key: "container"
    value {
      s: ""
    }
  }
  attr {
    key: "dtype"
    value {
      type: DT_FLOAT
    }
  }
  attr {
    key: "shape"
    value {
      shape {
        dim {
          size: 4
        }
        dim {
          size: 4
        }
        dim {
          size: 3
        }
        dim {
          size: 64
        }
      }
    }
  }
  attr {
    key: "shared_name"
    value {
      s: ""
    }
  }
}
node {
  name: "generator/encoder_1/conv2d/kernel/Assign"
  op: "Assign"
  input: "generator/encoder_1/conv2d/kernel"
  input: "generator/encoder_1/conv2d/kernel/Initializer/random_normal"
  attr {
    key: "T"
    value {
      type: DT_FLOAT
    }
  }
  attr {
    key: "_class"
    value {
      list {
        s: "loc:@generator/encoder_1/conv2d/kernel"
      }
    }
  }
  attr {
    key: "_output_shapes"
    value {
      list {
        shape {
          dim {
            size: 4
          }
          dim {
            size: 4
          }
          dim {
            size: 3
          }
          dim {
            size: 64
          }
        }
      }
    }
  }
  attr {
    key: "use_locking"
    value {
      b: true
    }
  }
  attr {
    key: "validate_shape"
    value {
      b: true
    }
  }
}
node {
  name: "generator/encoder_1/conv2d/kernel/read"
  op: "Identity"
  input: "generator/encoder_1/conv2d/kernel"
  attr {
    key: "T"
    value {
      type: DT_FLOAT
    }
  }
  attr {
    key: "_class"
    value {
      list {
        s: "loc:@generator/encoder_1/conv2d/kernel"
      }
    }
  }
  attr {
    key: "_output_shapes"
    value {
      list {
        shape {
          dim {
            size: 4
          }
          dim {
            size: 4
          }
          dim {
            size: 3
          }
          dim {
            size: 64
          }
        }
      }
    }
  }
}
node {
  name: "generator/encoder_1/conv2d/bias/Initializer/zeros"
  op: "Const"
  attr {
    key: "_class"
    value {
      list {
        s: "loc:@generator/encoder_1/conv2d/bias"
      }
    }
  }
  attr {
    key: "_output_shapes"
    value {
      list {
        shape {
          dim {
            size: 64
          }
        }
      }
    }
  }
  attr {
    key: "dtype"
    value {
      type: DT_FLOAT
    }
  }
  attr {
    key: "value"
    value {
      tensor {
        dtype: DT_FLOAT
        tensor_shape {
          dim {
            size: 64
          }
        }
        float_val: 0.0
      }
    }
  }
}
node {
  name: "generator/encoder_1/conv2d/bias"
  op: "VariableV2"
  attr {
    key: "_class"
    value {
      list {
        s: "loc:@generator/encoder_1/conv2d/bias"
      }
    }
  }
  attr {
    key: "_output_shapes"
    value {
      list {
        shape {
          dim {
            size: 64
          }
        }
      }
    }
  }
  attr {
    key: "container"
    value {
      s: ""
    }
  }
  attr {
    key: "dtype"
    value {
      type: DT_FLOAT
    }
  }
  attr {
    key: "shape"
    value {
      shape {
        dim {
          size: 64
        }
      }
    }
  }
  attr {
    key: "shared_name"
    value {
      s: ""
    }
  }
}
node {
  name: "generator/encoder_1/conv2d/bias/Assign"
  op: "Assign"
  input: "generator/encoder_1/conv2d/bias"
  input: "generator/encoder_1/conv2d/bias/Initializer/zeros"
  attr {
    key: "T"
    value {
      type: DT_FLOAT
    }
  }
  attr {
    key: "_class"
    value {
      list {
        s: "loc:@generator/encoder_1/conv2d/bias"
      }
    }
  }
  attr {
    key: "_output_shapes"
    value {
      list {
        shape {
          dim {
            size: 64
          }
        }
      }
    }
  }
  attr {
    key: "use_locking"
    value {
      b: true
    }
  }
  attr {
    key: "validate_shape"
    value {
      b: true
    }
  }
}
node {
  name: "generator/encoder_1/conv2d/bias/read"
  op: "Identity"
  input: "generator/encoder_1/conv2d/bias"
  attr {
    key: "T"
    value {
      type: DT_FLOAT
    }
  }
  attr {
    key: "_class"
    value {
      list {
        s: "loc:@generator/encoder_1/conv2d/bias"
      }
    }
  }
  attr {
    key: "_output_shapes"
    value {
      list {
        shape {
          dim {
            size: 64
          }
        }
      }
    }
  }
}
node {
  name: "generator/encoder_1/conv2d/dilation_rate"
  op: "Const"
  attr {
    key: "_output_shapes"
    value {
      list {
        shape {
          dim {
            size: 2
          }
        }
      }
    }
  }
  attr {
    key: "dtype"
    value {
      type: DT_INT32
    }
  }
  attr {
    key: "value"
    value {
      tensor {
        dtype: DT_INT32
        tensor_shape {
          dim {
            size: 2
          }
        }
        tensor_content: "\001\000\000\000\001\000\000\000"
      }
    }
  }
}
node {
  name: "generator/encoder_1/conv2d/Conv2D"
  op: "Conv2D"
  input: "batch:1"
  input: "generator/encoder_1/conv2d/kernel/read"
  attr {
    key: "T"
    value {
      type: DT_FLOAT
    }
  }
  attr {
    key: "_output_shapes"
    value {
      list {
        shape {
          dim {
            size: 1
          }
          dim {
            size: 128
          }
          dim {
            size: 128
          }
          dim {
            size: 64
          }
        }
      }
    }
  }
  attr {
    key: "data_format"
    value {
      s: "NHWC"
    }
  }
  attr {
    key: "dilations"
    value {
      list {
        i: 1
        i: 1
        i: 1
        i: 1
      }
    }
  }
  attr {
    key: "padding"
    value {
      s: "SAME"
    }
  }
  attr {
    key: "strides"
    value {
      list {
        i: 1
        i: 2
        i: 2
        i: 1
      }
    }
  }
  attr {
    key: "use_cudnn_on_gpu"
    value {
      b: true
    }
  }
}
node {
  name: "generator/encoder_1/conv2d/BiasAdd"
  op: "BiasAdd"
  input: "generator/encoder_1/conv2d/Conv2D"
  input: "generator/encoder_1/conv2d/bias/read"
  attr {
    key: "T"
    value {
      type: DT_FLOAT
    }
  }
  attr {
    key: "_output_shapes"
    value {
      list {
        shape {
          dim {
            size: 1
          }
          dim {
            size: 128
          }
          dim {
            size: 128
          }
          dim {
            size: 64
          }
        }
      }
    }
  }
  attr {
    key: "data_format"
    value {
      s: "NHWC"
    }
  }
}
node {
  name: "generator/encoder_2/lrelu/Identity"
  op: "Identity"
  input: "generator/encoder_1/conv2d/BiasAdd"
  attr {
    key: "T"
    value {
      type: DT_FLOAT
    }
  }
  attr {
    key: "_output_shapes"
    value {
      list {
        shape {
          dim {
            size: 1
          }
          dim {
            size: 128
          }
          dim {
            size: 128
          }
          dim {
            size: 64
          }
        }
      }
    }
  }
}
node {
  name: "generator/encoder_2/lrelu/mul/x"
  op: "Const"
  attr {
    key: "_output_shapes"
    value {
      list {
        shape {
        }
      }
    }
  }
  attr {
    key: "dtype"
    value {
      type: DT_FLOAT
    }
  }
  attr {
    key: "value"
    value {
      tensor {
        dtype: DT_FLOAT
        tensor_shape {
        }
        float_val: 0.6000000238418579
      }
    }
  }
}
node {
  name: "generator/encoder_2/lrelu/mul"
  op: "Mul"
  input: "generator/encoder_2/lrelu/mul/x"
  input: "generator/encoder_2/lrelu/Identity"
  attr {
    key: "T"
    value {
      type: DT_FLOAT
    }
  }
  attr {
    key: "_output_shapes"
    value {
      list {
        shape {
          dim {
            size: 1
          }
          dim {
            size: 128
          }
          dim {
            size: 128
          }
          dim {
            size: 64
          }
        }
      }
    }
  }
}
node {
  name: "generator/encoder_2/lrelu/Abs"
  op: "Abs"
  input: "generator/encoder_2/lrelu/Identity"
  attr {
    key: "T"
    value {
      type: DT_FLOAT
    }
  }
  attr {
    key: "_output_shapes"
    value {
      list {
        shape {
          dim {
            size: 1
          }
          dim {
            size: 128
          }
          dim {
            size: 128
          }
          dim {
            size: 64
          }
        }
      }
    }
  }
}
node {
  name: "generator/encoder_2/lrelu/mul_1/x"
  op: "Const"
  attr {
    key: "_output_shapes"
    value {
      list {
        shape {
        }
      }
    }
  }
  attr {
    key: "dtype"
    value {
      type: DT_FLOAT
    }
  }
  attr {
    key: "value"
    value {
      tensor {
        dtype: DT_FLOAT
        tensor_shape {
        }
        float_val: 0.4000000059604645
      }
    }
  }
}
node {
  name: "generator/encoder_2/lrelu/mul_1"
  op: "Mul"
  input: "generator/encoder_2/lrelu/mul_1/x"
  input: "generator/encoder_2/lrelu/Abs"
  attr {
    key: "T"
    value {
      type: DT_FLOAT
    }
  }
  attr {
    key: "_output_shapes"
    value {
      list {
        shape {
          dim {
            size: 1
          }
          dim {
            size: 128
          }
          dim {
            size: 128
          }
          dim {
            size: 64
          }
        }
      }
    }
  }
}
node {
  name: "generator/encoder_2/lrelu/add"
  op: "Add"
  input: "generator/encoder_2/lrelu/mul"
  input: "generator/encoder_2/lrelu/mul_1"
  attr {
    key: "T"
    value {
      type: DT_FLOAT
    }
  }
  attr {
    key: "_output_shapes"
    value {
      list {
        shape {
          dim {
            size: 1
          }
          dim {
            size: 128
          }
          dim {
            size: 128
          }
          dim {
            size: 64
          }
        }
      }
    }
  }
}
node {
  name: "generator/encoder_2/conv2d/kernel/Initializer/random_normal/shape"
  op: "Const"
  attr {
    key: "_class"
    value {
      list {
        s: "loc:@generator/encoder_2/conv2d/kernel"
      }
    }
  }
  attr {
    key: "_output_shapes"
    value {
      list {
        shape {
          dim {
            size: 4
          }
        }
      }
    }
  }
  attr {
    key: "dtype"
    value {
      type: DT_INT32
    }
  }
  attr {
    key: "value"
    value {
      tensor {
        dtype: DT_INT32
        tensor_shape {
          dim {
            size: 4
          }
        }
        tensor_content: "\004\000\000\000\004\000\000\000@\000\000\000\200\000\000\000"
      }
    }
  }
}
node {
  name: "generator/encoder_2/conv2d/kernel/Initializer/random_normal/mean"
  op: "Const"
  attr {
    key: "_class"
    value {
      list {
        s: "loc:@generator/encoder_2/conv2d/kernel"
      }
    }
  }
  attr {
    key: "_output_shapes"
    value {
      list {
        shape {
        }
      }
    }
  }
  attr {
    key: "dtype"
    value {
      type: DT_FLOAT
    }
  }
  attr {
    key: "value"
    value {
      tensor {
        dtype: DT_FLOAT
        tensor_shape {
        }
        float_val: 0.0
      }
    }
  }
}
node {
  name: "generator/encoder_2/conv2d/kernel/Initializer/random_normal/stddev"
  op: "Const"
  attr {
    key: "_class"
    value {
      list {
        s: "loc:@generator/encoder_2/conv2d/kernel"
      }
    }
  }
  attr {
    key: "_output_shapes"
    value {
      list {
        shape {
        }
      }
    }
  }
  attr {
    key: "dtype"
    value {
      type: DT_FLOAT
    }
  }
  attr {
    key: "value"
    value {
      tensor {
        dtype: DT_FLOAT
        tensor_shape {
        }
        float_val: 0.019999999552965164
      }
    }
  }
}
node {
  name: "generator/encoder_2/conv2d/kernel/Initializer/random_normal/RandomStandardNormal"
  op: "RandomStandardNormal"
  input: "generator/encoder_2/conv2d/kernel/Initializer/random_normal/shape"
  attr {
    key: "T"
    value {
      type: DT_INT32
    }
  }
  attr {
    key: "_class"
    value {
      list {
        s: "loc:@generator/encoder_2/conv2d/kernel"
      }
    }
  }
  attr {
    key: "_output_shapes"
    value {
      list {
        shape {
          dim {
            size: 4
          }
          dim {
            size: 4
          }
          dim {
            size: 64
          }
          dim {
            size: 128
          }
        }
      }
    }
  }
  attr {
    key: "dtype"
    value {
      type: DT_FLOAT
    }
  }
  attr {
    key: "seed"
    value {
      i: 514729969
    }
  }
  attr {
    key: "seed2"
    value {
      i: 139
    }
  }
}
node {
  name: "generator/encoder_2/conv2d/kernel/Initializer/random_normal/mul"
  op: "Mul"
  input: "generator/encoder_2/conv2d/kernel/Initializer/random_normal/RandomStandardNormal"
  input: "generator/encoder_2/conv2d/kernel/Initializer/random_normal/stddev"
  attr {
    key: "T"
    value {
      type: DT_FLOAT
    }
  }
  attr {
    key: "_class"
    value {
      list {
        s: "loc:@generator/encoder_2/conv2d/kernel"
      }
    }
  }
  attr {
    key: "_output_shapes"
    value {
      list {
        shape {
          dim {
            size: 4
          }
          dim {
            size: 4
          }
          dim {
            size: 64
          }
          dim {
            size: 128
          }
        }
      }
    }
  }
}
node {
  name: "generator/encoder_2/conv2d/kernel/Initializer/random_normal"
  op: "Add"
  input: "generator/encoder_2/conv2d/kernel/Initializer/random_normal/mul"
  input: "generator/encoder_2/conv2d/kernel/Initializer/random_normal/mean"
  attr {
    key: "T"
    value {
      type: DT_FLOAT
    }
  }
  attr {
    key: "_class"
    value {
      list {
        s: "loc:@generator/encoder_2/conv2d/kernel"
      }
    }
  }
  attr {
    key: "_output_shapes"
    value {
      list {
        shape {
          dim {
            size: 4
          }
          dim {
            size: 4
          }
          dim {
            size: 64
          }
          dim {
            size: 128
          }
        }
      }
    }
  }
}
node {
  name: "generator/encoder_2/conv2d/kernel"
  op: "VariableV2"
  attr {
    key: "_class"
    value {
      list {
        s: "loc:@generator/encoder_2/conv2d/kernel"
      }
    }
  }
  attr {
    key: "_output_shapes"
    value {
      list {
        shape {
          dim {
            size: 4
          }
          dim {
            size: 4
          }
          dim {
…
        string_val: "generator/encoder_5/batch_normalization/gamma/Adam"
        string_val: "generator/encoder_5/batch_normalization/gamma/Adam_1"
        string_val: "generator/encoder_5/batch_normalization/beta/Adam"
        string_val: "generator/encoder_5/batch_normalization/beta/Adam_1"
        string_val: "generator/encoder_6/conv2d/kernel/Adam"
        string_val: "generator/encoder_6/conv2d/kernel/Adam_1"
        string_val: "generator/encoder_6/conv2d/bias/Adam"
        string_val: "generator/encoder_6/conv2d/bias/Adam_1"
        string_val: "generator/encoder_6/batch_normalization/gamma/Adam"
        string_val: "generator/encoder_6/batch_normalization/gamma/Adam_1"
        string_val: "generator/encoder_6/batch_normalization/beta/Adam"
        string_val: "generator/encoder_6/batch_normalization/beta/Adam_1"
        string_val: "generator/encoder_7/conv2d/kernel/Adam"
        string_val: "generator/encoder_7/conv2d/kernel/Adam_1"
        string_val: "generator/encoder_7/conv2d/bias/Adam"
        string_val: "generator/encoder_7/conv2d/bias/Adam_1"
        string_val: "generator/encoder_7/batch_normalization/gamma/Adam"
        string_val: "generator/encoder_7/batch_normalization/gamma/Adam_1"
        string_val: "generator/encoder_7/batch_normalization/beta/Adam"
        string_val: "generator/encoder_7/batch_normalization/beta/Adam_1"
        string_val: "generator/encoder_8/conv2d/kernel/Adam"
        string_val: "generator/encoder_8/conv2d/kernel/Adam_1"
        string_val: "generator/encoder_8/conv2d/bias/Adam"
        string_val: "generator/encoder_8/conv2d/bias/Adam_1"
        string_val: "generator/encoder_8/batch_normalization/gamma/Adam"
        string_val: "generator/encoder_8/batch_normalization/gamma/Adam_1"
        string_val: "generator/encoder_8/batch_normalization/beta/Adam"
        string_val: "generator/encoder_8/batch_normalization/beta/Adam_1"
        string_val: "generator/decoder_8/conv2d_transpose/kernel/Adam"
        string_val: "generator/decoder_8/conv2d_transpose/kernel/Adam_1"
        string_val: "generator/decoder_8/conv2d_transpose/bias/Adam"
        string_val: "generator/decoder_8/conv2d_transpose/bias/Adam_1"
        string_val: "generator/decoder_8/batch_normalization/gamma/Adam"
        string_val: "generator/decoder_8/batch_normalization/gamma/Adam_1"
        string_val: "generator/decoder_8/batch_normalization/beta/Adam"
        string_val: "generator/decoder_8/batch_normalization/beta/Adam_1"
        string_val: "generator/decoder_7/conv2d_transpose/kernel/Adam"
        string_val: "generator/decoder_7/conv2d_transpose/kernel/Adam_1"
        string_val: "generator/decoder_7/conv2d_transpose/bias/Adam"
        string_val: "generator/decoder_7/conv2d_transpose/bias/Adam_1"
        string_val: "generator/decoder_7/batch_normalization/gamma/Adam"
        string_val: "generator/decoder_7/batch_normalization/gamma/Adam_1"
        string_val: "generator/decoder_7/batch_normalization/beta/Adam"
        string_val: "generator/decoder_7/batch_normalization/beta/Adam_1"
        string_val: "generator/decoder_6/conv2d_transpose/kernel/Adam"
        string_val: "generator/decoder_6/conv2d_transpose/kernel/Adam_1"
        string_val: "generator/decoder_6/conv2d_transpose/bias/Adam"
        string_val: "generator/decoder_6/conv2d_transpose/bias/Adam_1"
        string_val: "generator/decoder_6/batch_normalization/gamma/Adam"
        string_val: "generator/decoder_6/batch_normalization/gamma/Adam_1"
        string_val: "generator/decoder_6/batch_normalization/beta/Adam"
        string_val: "generator/decoder_6/batch_normalization/beta/Adam_1"
        string_val: "generator/decoder_5/conv2d_transpose/kernel/Adam"
        string_val: "generator/decoder_5/conv2d_transpose/kernel/Adam_1"
        string_val: "generator/decoder_5/conv2d_transpose/bias/Adam"
        string_val: "generator/decoder_5/conv2d_transpose/bias/Adam_1"
        string_val: "generator/decoder_5/batch_normalization/gamma/Adam"
        string_val: "generator/decoder_5/batch_normalization/gamma/Adam_1"
        string_val: "generator/decoder_5/batch_normalization/beta/Adam"
        string_val: "generator/decoder_5/batch_normalization/beta/Adam_1"
        string_val: "generator/decoder_4/conv2d_transpose/kernel/Adam"
        string_val: "generator/decoder_4/conv2d_transpose/kernel/Adam_1"
        string_val: "generator/decoder_4/conv2d_transpose/bias/Adam"
        string_val: "generator/decoder_4/conv2d_transpose/bias/Adam_1"
        string_val: "generator/decoder_4/batch_normalization/gamma/Adam"
        string_val: "generator/decoder_4/batch_normalization/gamma/Adam_1"
        string_val: "generator/decoder_4/batch_normalization/beta/Adam"
        string_val: "generator/decoder_4/batch_normalization/beta/Adam_1"
        string_val: "generator/decoder_3/conv2d_transpose/kernel/Adam"
        string_val: "generator/decoder_3/conv2d_transpose/kernel/Adam_1"
        string_val: "generator/decoder_3/conv2d_transpose/bias/Adam"
        string_val: "generator/decoder_3/conv2d_transpose/bias/Adam_1"
        string_val: "generator/decoder_3/batch_normalization/gamma/Adam"
        string_val: "generator/decoder_3/batch_normalization/gamma/Adam_1"
        string_val: "generator/decoder_3/batch_normalization/beta/Adam"
        string_val: "generator/decoder_3/batch_normalization/beta/Adam_1"
        string_val: "generator/decoder_2/conv2d_transpose/kernel/Adam"
        string_val: "generator/decoder_2/conv2d_transpose/kernel/Adam_1"
        string_val: "generator/decoder_2/conv2d_transpose/bias/Adam"
        string_val: "generator/decoder_2/conv2d_transpose/bias/Adam_1"
        string_val: "generator/decoder_2/batch_normalization/gamma/Adam"
        string_val: "generator/decoder_2/batch_normalization/gamma/Adam_1"
        string_val: "generator/decoder_2/batch_normalization/beta/Adam"
        string_val: "generator/decoder_2/batch_normalization/beta/Adam_1"
        string_val: "generator/decoder_1/conv2d_transpose/kernel/Adam"
        string_val: "generator/decoder_1/conv2d_transpose/kernel/Adam_1"
        string_val: "generator/decoder_1/conv2d_transpose/bias/Adam"
        string_val: "generator/decoder_1/conv2d_transpose/bias/Adam_1"
        string_val: "discriminator_loss/Mean/ExponentialMovingAverage"
        string_val: "generator_loss/Mean/ExponentialMovingAverage"
        string_val: "generator_loss/Mean_1/ExponentialMovingAverage"
        string_val: "global_step"
      }
    }
  }
}
node {
  name: "report_uninitialized_variables/boolean_mask/Shape"
  op: "Const"
  device: "/device:CPU:0"
  attr {
    key: "_output_shapes"
    value {
      list {
        shape {
          dim {
            size: 1
          }
        }
      }
    }
  }
  attr {
    key: "dtype"
    value {
      type: DT_INT32
    }
  }
  attr {
    key: "value"
    value {
      tensor {
        dtype: DT_INT32
        tensor_shape {
          dim {
            size: 1
          }
        }
        int_val: 270
      }
    }
  }
}
node {
  name: "report_uninitialized_variables/boolean_mask/strided_slice/stack"
  op: "Const"
  device: "/device:CPU:0"
  attr {
    key: "_output_shapes"
    value {
      list {
        shape {
          dim {
            size: 1
          }
        }
      }
    }
  }
  attr {
    key: "dtype"
    value {
      type: DT_INT32
    }
  }
  attr {
    key: "value"
    value {
      tensor {
        dtype: DT_INT32
        tensor_shape {
          dim {
            size: 1
          }
        }
        int_val: 0
      }
    }
  }
}
node {
  name: "report_uninitialized_variables/boolean_mask/strided_slice/stack_1"
  op: "Const"
  device: "/device:CPU:0"
  attr {
    key: "_output_shapes"
    value {
      list {
        shape {
          dim {
            size: 1
          }
        }
      }
    }
  }
  attr {
    key: "dtype"
    value {
      type: DT_INT32
    }
  }
  attr {
    key: "value"
    value {
      tensor {
        dtype: DT_INT32
        tensor_shape {
          dim {
            size: 1
          }
        }
        int_val: 1
      }
    }
  }
}
node {
  name: "report_uninitialized_variables/boolean_mask/strided_slice/stack_2"
  op: "Const"
  device: "/device:CPU:0"
  attr {
    key: "_output_shapes"
    value {
      list {
        shape {
          dim {
            size: 1
          }
        }
      }
    }
  }
  attr {
    key: "dtype"
    value {
      type: DT_INT32
    }
  }
  attr {
    key: "value"
    value {
      tensor {
        dtype: DT_INT32
        tensor_shape {
          dim {
            size: 1
          }
        }
        int_val: 1
      }
    }
  }
}
node {
  name: "report_uninitialized_variables/boolean_mask/strided_slice"
  op: "StridedSlice"
  input: "report_uninitialized_variables/boolean_mask/Shape"
  input: "report_uninitialized_variables/boolean_mask/strided_slice/stack"
  input: "report_uninitialized_variables/boolean_mask/strided_slice/stack_1"
  input: "report_uninitialized_variables/boolean_mask/strided_slice/stack_2"
  device: "/device:CPU:0"
  attr {
    key: "Index"
    value {
      type: DT_INT32
    }
  }
  attr {
    key: "T"
    value {
      type: DT_INT32
    }
  }
  attr {
    key: "_output_shapes"
    value {
      list {
        shape {
          dim {
            size: 1
          }
        }
      }
    }
  }
  attr {
    key: "begin_mask"
    value {
      i: 0
    }
  }
  attr {
    key: "ellipsis_mask"
    value {
      i: 0
    }
  }
  attr {
    key: "end_mask"
    value {
      i: 0
    }
  }
  attr {
    key: "new_axis_mask"
    value {
      i: 0
    }
  }
  attr {
    key: "shrink_axis_mask"
    value {
      i: 0
    }
  }
}
node {
  name: "report_uninitialized_variables/boolean_mask/Prod/reduction_indices"
  op: "Const"
  device: "/device:CPU:0"
  attr {
    key: "_output_shapes"
    value {
      list {
        shape {
          dim {
            size: 1
          }
        }
      }
    }
  }
  attr {
    key: "dtype"
    value {
      type: DT_INT32
    }
  }
  attr {
    key: "value"
    value {
      tensor {
        dtype: DT_INT32
        tensor_shape {
          dim {
            size: 1
          }
        }
        int_val: 0
      }
    }
  }
}
node {
  name: "report_uninitialized_variables/boolean_mask/Prod"
  op: "Prod"
  input: "report_uninitialized_variables/boolean_mask/strided_slice"
  input: "report_uninitialized_variables/boolean_mask/Prod/reduction_indices"
  device: "/device:CPU:0"
  attr {
    key: "T"
    value {
      type: DT_INT32
    }
  }
  attr {
    key: "Tidx"
    value {
      type: DT_INT32
    }
  }
  attr {
    key: "_output_shapes"
    value {
      list {
        shape {
        }
      }
    }
  }
  attr {
    key: "keep_dims"
    value {
      b: false
    }
  }
}
node {
  name: "report_uninitialized_variables/boolean_mask/Shape_1"
  op: "Const"
  device: "/device:CPU:0"
  attr {
    key: "_output_shapes"
    value {
      list {
        shape {
          dim {
            size: 1
          }
        }
      }
    }
  }
  attr {
    key: "dtype"
    value {
      type: DT_INT32
    }
  }
  attr {
    key: "value"
    value {
      tensor {
        dtype: DT_INT32
        tensor_shape {
          dim {
            size: 1
          }
        }
        int_val: 270
      }
    }
  }
}
node {
  name: "report_uninitialized_variables/boolean_mask/strided_slice_1/stack"
  op: "Const"
  device: "/device:CPU:0"
  attr {
    key: "_output_shapes"
    value {
      list {
        shape {
          dim {
            size: 1
          }
        }
      }
    }
  }
  attr {
    key: "dtype"
    value {
      type: DT_INT32
    }
  }
  attr {
    key: "value"
    value {
      tensor {
        dtype: DT_INT32
        tensor_shape {
          dim {
            size: 1
          }
        }
        int_val: 0
      }
    }
  }
}
node {
  name: "report_uninitialized_variables/boolean_mask/strided_slice_1/stack_1"
  op: "Const"
  device: "/device:CPU:0"
  attr {
    key: "_output_shapes"
    value {
      list {
        shape {
          dim {
            size: 1
          }
        }
      }
    }
  }
  attr {
    key: "dtype"
    value {
      type: DT_INT32
    }
  }
  attr {
    key: "value"
    value {
      tensor {
        dtype: DT_INT32
        tensor_shape {
          dim {
            size: 1
          }
        }
        int_val: 0
      }
    }
  }
}
node {
  name: "report_uninitialized_variables/boolean_mask/strided_slice_1/stack_2"
  op: "Const"
  device: "/device:CPU:0"
  attr {
    key: "_output_shapes"
    value {
      list {
        shape {
          dim {
            size: 1
          }
        }
      }
    }
  }
  attr {
    key: "dtype"
    value {
      type: DT_INT32
    }
  }
  attr {
    key: "value"
    value {
      tensor {
        dtype: DT_INT32
        tensor_shape {
          dim {
            size: 1
          }
        }
        int_val: 1
      }
    }
  }
}
node {
  name: "report_uninitialized_variables/boolean_mask/strided_slice_1"
  op: "StridedSlice"
  input: "report_uninitialized_variables/boolean_mask/Shape_1"
  input: "report_uninitialized_variables/boolean_mask/strided_slice_1/stack"
  input: "report_uninitialized_variables/boolean_mask/strided_slice_1/stack_1"
  input: "report_uninitialized_variables/boolean_mask/strided_slice_1/stack_2"
  device: "/device:CPU:0"
  attr {
    key: "Index"
    value {
      type: DT_INT32
    }
  }
  attr {
    key: "T"
    value {
      type: DT_INT32
    }
  }
  attr {
    key: "_output_shapes"
    value {
      list {
        shape {
          dim {
          }
        }
      }
    }
  }
  attr {
    key: "begin_mask"
    value {
      i: 1
    }
  }
  attr {
    key: "ellipsis_mask"
    value {
      i: 0
    }
  }
  attr {
    key: "end_mask"
    value {
      i: 0
    }
  }
  attr {
    key: "new_axis_mask"
    value {
      i: 0
    }
  }
  attr {
    key: "shrink_axis_mask"
    value {
      i: 0
    }
  }
}
node {
  name: "report_uninitialized_variables/boolean_mask/Shape_2"
  op: "Const"
  device: "/device:CPU:0"
  attr {
    key: "_output_shapes"
    value {
      list {
        shape {
          dim {
            size: 1
          }
        }
      }
    }
  }
  attr {
    key: "dtype"
    value {
      type: DT_INT32
    }
  }
  attr {
    key: "value"
    value {
      tensor {
        dtype: DT_INT32
        tensor_shape {
          dim {
            size: 1
          }
        }
        int_val: 270
      }
    }
  }
}
node {
  name: "report_uninitialized_variables/boolean_mask/strided_slice_2/stack"
  op: "Const"
  device: "/device:CPU:0"
  attr {
    key: "_output_shapes"
    value {
      list {
        shape {
          dim {
            size: 1
          }
        }
      }
    }
  }
  attr {
    key: "dtype"
    value {
      type: DT_INT32
    }
  }
  attr {
    key: "value"
    value {
      tensor {
        dtype: DT_INT32
        tensor_shape {
          dim {
            size: 1
          }
        }
        int_val: 1
      }
    }
  }
}
node {
  name: "report_uninitialized_variables/boolean_mask/strided_slice_2/stack_1"
  op: "Const"
  device: "/device:CPU:0"
  attr {
    key: "_output_shapes"
    value {
      list {
        shape {
          dim {
            size: 1
          }
        }
      }
    }
  }
  attr {
    key: "dtype"
    value {
      type: DT_INT32
    }
  }
  attr {
    key: "value"
    value {
      tensor {
        dtype: DT_INT32
        tensor_shape {
          dim {
            size: 1
          }
        }
        int_val: 0
      }
    }
  }
}
node {
  name: "report_uninitialized_variables/boolean_mask/strided_slice_2/stack_2"
  op: "Const"
  device: "/device:CPU:0"
  attr {
    key: "_output_shapes"
    value {
      list {
        shape {
          dim {
            size: 1
          }
        }
      }
    }
  }
  attr {
    key: "dtype"
    value {
      type: DT_INT32
    }
  }
  attr {
    key: "value"
    value {
      tensor {
        dtype: DT_INT32
        tensor_shape {
          dim {
            size: 1
          }
        }
        int_val: 1
      }
    }
  }
}
node {
  name: "report_uninitialized_variables/boolean_mask/strided_slice_2"
  op: "StridedSlice"
  input: "report_uninitialized_variables/boolean_mask/Shape_2"
  input: "report_uninitialized_variables/boolean_mask/strided_slice_2/stack"
  input: "report_uninitialized_variables/boolean_mask/strided_slice_2/stack_1"
  input: "report_uninitialized_variables/boolean_mask/strided_slice_2/stack_2"
  device: "/device:CPU:0"
  attr {
    key: "Index"
    value {
      type: DT_INT32
    }
  }
  attr {
    key: "T"
    value {
      type: DT_INT32
    }
  }
  attr {
    key: "_output_shapes"
    value {
      list {
        shape {
          dim {
          }
        }
      }
    }
  }
  attr {
    key: "begin_mask"
    value {
      i: 0
    }
  }
  attr {
    key: "ellipsis_mask"
    value {
      i: 0
    }
  }
  attr {
    key: "end_mask"
    value {
      i: 1
    }
  }
  attr {
    key: "new_axis_mask"
    value {
      i: 0
    }
  }
  attr {
    key: "shrink_axis_mask"
    value {
      i: 0
    }
  }
}
node {
  name: "report_uninitialized_variables/boolean_mask/concat/values_1"
  op: "Pack"
  input: "report_uninitialized_variables/boolean_mask/Prod"
  device: "/device:CPU:0"
  attr {
    key: "N"
    value {
      i: 1
    }
  }
  attr {
    key: "T"
    value {
      type: DT_INT32
    }
  }
  attr {
    key: "_output_shapes"
    value {
      list {
        shape {
          dim {
            size: 1
          }
        }
      }
    }
  }
  attr {
    key: "axis"
    value {
      i: 0
    }
  }
}
node {
  name: "report_uninitialized_variables/boolean_mask/concat/axis"
  op: "Const"
  device: "/device:CPU:0"
  attr {
    key: "_output_shapes"
    value {
      list {
        shape {
        }
      }
    }
  }
  attr {
    key: "dtype"
    value {
      type: DT_INT32
    }
  }
  attr {
    key: "value"
    value {
      tensor {
        dtype: DT_INT32
        tensor_shape {
        }
        int_val: 0
      }
    }
  }
}
node {
  name: "report_uninitialized_variables/boolean_mask/concat"
  op: "ConcatV2"
  input: "report_uninitialized_variables/boolean_mask/strided_slice_1"
  input: "report_uninitialized_variables/boolean_mask/concat/values_1"
  input: "report_uninitialized_variables/boolean_mask/strided_slice_2"
  input: "report_uninitialized_variables/boolean_mask/concat/axis"
  device: "/device:CPU:0"
  attr {
    key: "N"
    value {
      i: 3
    }
  }
  attr {
    key: "T"
    value {
      type: DT_INT32
    }
  }
  attr {
    key: "Tidx"
    value {
      type: DT_INT32
    }
  }
  attr {
    key: "_output_shapes"
    value {
      list {
        shape {
          dim {
            size: 1
          }
        }
      }
    }
  }
}
node {
  name: "report_uninitialized_variables/boolean_mask/Reshape"
  op: "Reshape"
  input: "report_uninitialized_variables/Const"
  input: "report_uninitialized_variables/boolean_mask/concat"
  device: "/device:CPU:0"
  attr {
    key: "T"
    value {
      type: DT_STRING
    }
  }
  attr {
    key: "Tshape"
    value {
      type: DT_INT32
    }
  }
  attr {
    key: "_output_shapes"
    value {
      list {
        shape {
          dim {
            size: 270
          }
        }
      }
    }
  }
}
node {
  name: "report_uninitialized_variables/boolean_mask/Reshape_1/shape"
  op: "Const"
  device: "/device:CPU:0"
  attr {
    key: "_output_shapes"
    value {
      list {
        shape {
          dim {
            size: 1
          }
        }
      }
    }
  }
  attr {
    key: "dtype"
    value {
      type: DT_INT32
    }
  }
  attr {
    key: "value"
    value {
      tensor {
        dtype: DT_INT32
        tensor_shape {
          dim {
            size: 1
          }
        }
        int_val: -1
      }
    }
  }
}
node {
  name: "report_uninitialized_variables/boolean_mask/Reshape_1"
  op: "Reshape"
  input: "report_uninitialized_variables/LogicalNot"
  input: "report_uninitialized_variables/boolean_mask/Reshape_1/shape"
  device: "/device:CPU:0"
  attr {
    key: "T"
    value {
      type: DT_BOOL
    }
  }
  attr {
    key: "Tshape"
    value {
      type: DT_INT32
    }
  }
  attr {
    key: "_output_shapes"
    value {
      list {
        shape {
          dim {
            size: 270
          }
        }
      }
    }
  }
}
node {
  name: "report_uninitialized_variables/boolean_mask/Where"
  op: "Where"
  input: "report_uninitialized_variables/boolean_mask/Reshape_1"
  device: "/device:CPU:0"
  attr {
    key: "T"
    value {
      type: DT_BOOL
    }
  }
  attr {
    key: "_output_shapes"
    value {
      list {
        shape {
          dim {
            size: -1
          }
          dim {
            size: 1
          }
        }
      }
    }
  }
}
node {
  name: "report_uninitialized_variables/boolean_mask/Squeeze"
  op: "Squeeze"
  input: "report_uninitialized_variables/boolean_mask/Where"
  device: "/device:CPU:0"
  attr {
    key: "T"
    value {
      type: DT_INT64
    }
  }
  attr {
    key: "_output_shapes"
    value {
      list {
        shape {
          dim {
            size: -1
          }
        }
      }
    }
  }
  attr {
    key: "squeeze_dims"
    value {
      list {
        i: 1
      }
    }
  }
}
node {
  name: "report_uninitialized_variables/boolean_mask/GatherV2/axis"
  op: "Const"
  device: "/device:CPU:0"
  attr {
    key: "_output_shapes"
    value {
      list {
        shape {
        }
      }
    }
  }
  attr {
    key: "dtype"
    value {
      type: DT_INT32
    }
  }
  attr {
    key: "value"
    value {
      tensor {
        dtype: DT_INT32
        tensor_shape {
        }
        int_val: 0
      }
    }
  }
}
node {
  name: "report_uninitialized_variables/boolean_mask/GatherV2"
  op: "GatherV2"
  input: "report_uninitialized_variables/boolean_mask/Reshape"
  input: "report_uninitialized_variables/boolean_mask/Squeeze"
  input: "report_uninitialized_variables/boolean_mask/GatherV2/axis"
  device: "/device:CPU:0"
  attr {
    key: "Taxis"
    value {
      type: DT_INT32
    }
  }
  attr {
    key: "Tindices"
    value {
      type: DT_INT64
    }
  }
  attr {
    key: "Tparams"
    value {
      type: DT_STRING
    }
  }
  attr {
    key: "_output_shapes"
    value {
      list {
        shape {
          dim {
            size: -1
          }
        }
      }
    }
  }
}
node {
  name: "init"
  op: "NoOp"
  input: "^discriminator/layer_1/conv2d/bias/Adam/Assign"
  input: "^discriminator/layer_1/conv2d/bias/Adam_1/Assign"
  input: "^discriminator/layer_1/conv2d/bias/Assign"
  input: "^discriminator/layer_1/conv2d/kernel/Adam/Assign"
  input: "^discriminator/layer_1/conv2d/kernel/Adam_1/Assign"
  input: "^discriminator/layer_1/conv2d/kernel/Assign"
  input: "^discriminator/layer_2/batch_normalization/beta/Adam/Assign"
  input: "^discriminator/layer_2/batch_normalization/beta/Adam_1/Assign"
  input: "^discriminator/layer_2/batch_normalization/beta/Assign"
  input: "^discriminator/layer_2/batch_normalization/gamma/Adam/Assign"
  input: "^discriminator/layer_2/batch_normalization/gamma/Adam_1/Assign"
  input: "^discriminator/layer_2/batch_normalization/gamma/Assign"
  input: "^discriminator/layer_2/batch_normalization/moving_mean/Assign"
  input: "^discriminator/layer_2/batch_normalization/moving_variance/Assign"
  input: "^discriminator/layer_2/conv2d/bias/Adam/Assign"
  input: "^discriminator/layer_2/conv2d/bias/Adam_1/Assign"
  input: "^discriminator/layer_2/conv2d/bias/Assign"
  input: "^discriminator/layer_2/conv2d/kernel/Adam/Assign"
  input: "^discriminator/layer_2/conv2d/kernel/Adam_1/Assign"
  input: "^discriminator/layer_2/conv2d/kernel/Assign"
  input: "^discriminator/layer_3/batch_normalization/beta/Adam/Assign"
  input: "^discriminator/layer_3/batch_normalization/beta/Adam_1/Assign"
  input: "^discriminator/layer_3/batch_normalization/beta/Assign"
  input: "^discriminator/layer_3/batch_normalization/gamma/Adam/Assign"
  input: "^discriminator/layer_3/batch_normalization/gamma/Adam_1/Assign"
  input: "^discriminator/layer_3/batch_normalization/gamma/Assign"
  input: "^discriminator/layer_3/batch_normalization/moving_mean/Assign"
  input: "^discriminator/layer_3/batch_normalization/moving_variance/Assign"
  input: "^discriminator/layer_3/conv2d/bias/Adam/Assign"
  input: "^discriminator/layer_3/conv2d/bias/Adam_1/Assign"
  input: "^discriminator/layer_3/conv2d/bias/Assign"
  input: "^discriminator/layer_3/conv2d/kernel/Adam/Assign"
  input: "^discriminator/layer_3/conv2d/kernel/Adam_1/Assign"
  input: "^discriminator/layer_3/conv2d/kernel/Assign"
  input: "^discriminator/layer_4/batch_normalization/beta/Adam/Assign"
  input: "^discriminator/layer_4/batch_normalization/beta/Adam_1/Assign"
  input: "^discriminator/layer_4/batch_normalization/beta/Assign"
  input: "^discriminator/layer_4/batch_normalization/gamma/Adam/Assign"
  input: "^discriminator/layer_4/batch_normalization/gamma/Adam_1/Assign"
  input: "^discriminator/layer_4/batch_normalization/gamma/Assign"
  input: "^discriminator/layer_4/batch_normalization/moving_mean/Assign"
  input: "^discriminator/layer_4/batch_normalization/moving_variance/Assign"
  input: "^discriminator/layer_4/conv2d/bias/Adam/Assign"
  input: "^discriminator/layer_4/conv2d/bias/Adam_1/Assign"
  input: "^discriminator/layer_4/conv2d/bias/Assign"
  input: "^discriminator/layer_4/conv2d/kernel/Adam/Assign"
  input: "^discriminator/layer_4/conv2d/kernel/Adam_1/Assign"
  input: "^discriminator/layer_4/conv2d/kernel/Assign"
  input: "^discriminator/layer_5/conv2d/bias/Adam/Assign"
  input: "^discriminator/layer_5/conv2d/bias/Adam_1/Assign"
  input: "^discriminator/layer_5/conv2d/bias/Assign"
  input: "^discriminator/layer_5/conv2d/kernel/Adam/Assign"
  input: "^discriminator/layer_5/conv2d/kernel/Adam_1/Assign"
  input: "^discriminator/layer_5/conv2d/kernel/Assign"
  input: "^discriminator_loss/Mean/ExponentialMovingAverage/Assign"
  input: "^discriminator_train/beta1_power/Assign"
  input: "^discriminator_train/beta2_power/Assign"
  input: "^generator/decoder_1/conv2d_transpose/bias/Adam/Assign"
  input: "^generator/decoder_1/conv2d_transpose/bias/Adam_1/Assign"
  input: "^generator/decoder_1/conv2d_transpose/bias/Assign"
  input: "^generator/decoder_1/conv2d_transpose/kernel/Adam/Assign"
  input: "^generator/decoder_1/conv2d_transpose/kernel/Adam_1/Assign"
  input: "^generator/decoder_1/conv2d_transpose/kernel/Assign"
  input: "^generator/decoder_2/batch_normalization/beta/Adam/Assign"
  input: "^generator/decoder_2/batch_normalization/beta/Adam_1/Assign"
  input: "^generator/decoder_2/batch_normalization/beta/Assign"
  input: "^generator/decoder_2/batch_normalization/gamma/Adam/Assign"
  input: "^generator/decoder_2/batch_normalization/gamma/Adam_1/Assign"
  input: "^generator/decoder_2/batch_normalization/gamma/Assign"
  input: "^generator/decoder_2/batch_normalization/moving_mean/Assign"
  input: "^generator/decoder_2/batch_normalization/moving_variance/Assign"
  input: "^generator/decoder_2/conv2d_transpose/bias/Adam/Assign"
  input: "^generator/decoder_2/conv2d_transpose/bias/Adam_1/Assign"
  input: "^generator/decoder_2/conv2d_transpose/bias/Assign"
  input: "^generator/decoder_2/conv2d_transpose/kernel/Adam/Assign"
  input: "^generator/decoder_2/conv2d_transpose/kernel/Adam_1/Assign"
  input: "^generator/decoder_2/conv2d_transpose/kernel/Assign"
  input: "^generator/decoder_3/batch_normalization/beta/Adam/Assign"
  input: "^generator/decoder_3/batch_normalization/beta/Adam_1/Assign"
  input: "^generator/decoder_3/batch_normalization/beta/Assign"
  input: "^generator/decoder_3/batch_normalization/gamma/Adam/Assign"
  input: "^generator/decoder_3/batch_normalization/gamma/Adam_1/Assign"
  input: "^generator/decoder_3/batch_normalization/gamma/Assign"
  input: "^generator/decoder_3/batch_normalization/moving_mean/Assign"
  input: "^generator/decoder_3/batch_normalization/moving_variance/Assign"
  input: "^generator/decoder_3/conv2d_transpose/bias/Adam/Assign"
  input: "^generator/decoder_3/conv2d_transpose/bias/Adam_1/Assign"
  input: "^generator/decoder_3/conv2d_transpose/bias/Assign"
  input: "^generator/decoder_3/conv2d_transpose/kernel/Adam/Assign"
  input: "^generator/decoder_3/conv2d_transpose/kernel/Adam_1/Assign"
  input: "^generator/decoder_3/conv2d_transpose/kernel/Assign"
  input: "^generator/decoder_4/batch_normalization/beta/Adam/Assign"
  input: "^generator/decoder_4/batch_normalization/beta/Adam_1/Assign"
  input: "^generator/decoder_4/batch_normalization/beta/Assign"
  input: "^generator/decoder_4/batch_normalization/gamma/Adam/Assign"
  input: "^generator/decoder_4/batch_normalization/gamma/Adam_1/Assign"
  input: "^generator/decoder_4/batch_normalization/gamma/Assign"
  input: "^generator/decoder_4/batch_normalization/moving_mean/Assign"
  input: "^generator/decoder_4/batch_normalization/moving_variance/Assign"
  input: "^generator/decoder_4/conv2d_transpose/bias/Adam/Assign"
  input: "^generator/decoder_4/conv2d_transpose/bias/Adam_1/Assign"
  input: "^generator/decoder_4/conv2d_transpose/bias/Assign"
  input: "^generator/decoder_4/conv2d_transpose/kernel/Adam/Assign"
  input: "^generator/decoder_4/conv2d_transpose/kernel/Adam_1/Assign"
  input: "^generator/decoder_4/conv2d_transpose/kernel/Assign"
  input: "^generator/decoder_5/batch_normalization/beta/Adam/Assign"
  input: "^generator/decoder_5/batch_normalization/beta/Adam_1/Assign"
  input: "^generator/decoder_5/batch_normalization/beta/Assign"
  input: "^generator/decoder_5/batch_normalization/gamma/Adam/Assign"
  input: "^generator/decoder_5/batch_normalization/gamma/Adam_1/Assign"
  input: "^generator/decoder_5/batch_normalization/gamma/Assign"
  input: "^generator/decoder_5/batch_normalization/moving_mean/Assign"
  input: "^generator/decoder_5/batch_normalization/moving_variance/Assign"
  input: "^generator/decoder_5/conv2d_transpose/bias/Adam/Assign"
  input: "^generator/decoder_5/conv2d_transpose/bias/Adam_1/Assign"
  input: "^generator/decoder_5/conv2d_transpose/bias/Assign"
  input: "^generator/decoder_5/conv2d_transpose/kernel/Adam/Assign"
  input: "^generator/decoder_5/conv2d_transpose/kernel/Adam_1/Assign"
  input: "^generator/decoder_5/conv2d_transpose/kernel/Assign"
  input: "^generator/decoder_6/batch_normalization/beta/Adam/Assign"
  input: "^generator/decoder_6/batch_normalization/beta/Adam_1/Assign"
  input: "^generator/decoder_6/batch_normalization/beta/Assign"
  input: "^generator/decoder_6/batch_normalization/gamma/Adam/Assign"
  input: "^generator/decoder_6/batch_normalization/gamma/Adam_1/Assign"
  input: "^generator/decoder_6/batch_normalization/gamma/Assign"
  input: "^generator/decoder_6/batch_normalization/moving_mean/Assign"
  input: "^generator/decoder_6/batch_normalization/moving_variance/Assign"
  input: "^generator/decoder_6/conv2d_transpose/bias/Adam/Assign"
  input: "^generator/decoder_6/conv2d_transpose/bias/Adam_1/Assign"
  input: "^generator/decoder_6/conv2d_transpose/bias/Assign"
  input: "^generator/decoder_6/conv2d_transpose/kernel/Adam/Assign"
  input: "^generator/decoder_6/conv2d_transpose/kernel/Adam_1/Assign"
  input: "^generator/decoder_6/conv2d_transpose/kernel/Assign"
  input: "^generator/decoder_7/batch_normalization/beta/Adam/Assign"
  input: "^generator/decoder_7/batch_normalization/beta/Adam_1/Assign"
  input: "^generator/decoder_7/batch_normalization/beta/Assign"
  input: "^generator/decoder_7/batch_normalization/gamma/Adam/Assign"
  input: "^generator/decoder_7/batch_normalization/gamma/Adam_1/Assign"
  input: "^generator/decoder_7/batch_normalization/gamma/Assign"
  input: "^generator/decoder_7/batch_normalization/moving_mean/Assign"
  input: "^generator/decoder_7/batch_normalization/moving_variance/Assign"
  input: "^generator/decoder_7/conv2d_transpose/bias/Adam/Assign"
  input: "^generator/decoder_7/conv2d_transpose/bias/Adam_1/Assign"
  input: "^generator/decoder_7/conv2d_transpose/bias/Assign"
  input: "^generator/decoder_7/conv2d_transpose/kernel/Adam/Assign"
  input: "^generator/decoder_7/conv2d_transpose/kernel/Adam_1/Assign"
  input: "^generator/decoder_7/conv2d_transpose/kernel/Assign"
  input: "^generator/decoder_8/batch_normalization/beta/Adam/Assign"
  input: "^generator/decoder_8/batch_normalization/beta/Adam_1/Assign"
  input: "^generator/decoder_8/batch_normalization/beta/Assign"
  input: "^generator/decoder_8/batch_normalization/gamma/Adam/Assign"
  input: "^generator/decoder_8/batch_normalization/gamma/Adam_1/Assign"
  input: "^generator/decoder_8/batch_normalization/gamma/Assign"
  input: "^generator/decoder_8/batch_normalization/moving_mean/Assign"
  input: "^generator/decoder_8/batch_normalization/moving_variance/Assign"
  input: "^generator/decoder_8/conv2d_transpose/bias/Adam/Assign"
  input: "^generator/decoder_8/conv2d_transpose/bias/Adam_1/Assign"
  input: "^generator/decoder_8/conv2d_transpose/bias/Assign"
  input: "^generator/decoder_8/conv2d_transpose/kernel/Adam/Assign"
  input: "^generator/decoder_8/conv2d_transpose/kernel/Adam_1/Assign"
  input: "^generator/decoder_8/conv2d_transpose/kernel/Assign"
  input: "^generator/encoder_1/conv2d/bias/Adam/Assign"
  input: "^generator/encoder_1/conv2d/bias/Adam_1/Assign"
  input: "^generator/encoder_1/conv2d/bias/Assign"
  input: "^generator/encoder_1/conv2d/kernel/Adam/Assign"
  input: "^generator/encoder_1/conv2d/kernel/Adam_1/Assign"
  input: "^generator/encoder_1/conv2d/kernel/Assign"
  input: "^generator/encoder_2/batch_normalization/beta/Adam/Assign"
  input: "^generator/encoder_2/batch_normalization/beta/Adam_1/Assign"
  input: "^generator/encoder_2/batch_normalization/beta/Assign"
  input: "^generator/encoder_2/batch_normalization/gamma/Adam/Assign"
  input: "^generator/encoder_2/batch_normalization/gamma/Adam_1/Assign"
  input: "^generator/encoder_2/batch_normalization/gamma/Assign"
  input: "^generator/encoder_2/batch_normalization/moving_mean/Assign"
  input: "^generator/encoder_2/batch_normalization/moving_variance/Assign"
  input: "^generator/encoder_2/conv2d/bias/Adam/Assign"
  input: "^generator/encoder_2/conv2d/bias/Adam_1/Assign"
  input: "^generator/encoder_2/conv2d/bias/Assign"
  input: "^generator/encoder_2/conv2d/kernel/Adam/Assign"
  input: "^generator/encoder_2/conv2d/kernel/Adam_1/Assign"
  input: "^generator/encoder_2/conv2d/kernel/Assign"
  input: "^generator/encoder_3/batch_normalization/beta/Adam/Assign"
  input: "^generator/encoder_3/batch_normalization/beta/Adam_1/Assign"
  input: "^generator/encoder_3/batch_normalization/beta/Assign"
  input: "^generator/encoder_3/batch_normalization/gamma/Adam/Assign"
  input: "^generator/encoder_3/batch_normalization/gamma/Adam_1/Assign"
  input: "^generator/encoder_3/batch_normalization/gamma/Assign"
  input: "^generator/encoder_3/batch_normalization/moving_mean/Assign"
  input: "^generator/encoder_3/batch_normalization/moving_variance/Assign"
  input: "^generator/encoder_3/conv2d/bias/Adam/Assign"
  input: "^generator/encoder_3/conv2d/bias/Adam_1/Assign"
  input: "^generator/encoder_3/conv2d/bias/Assign"
  input: "^generator/encoder_3/conv2d/kernel/Adam/Assign"
  input: "^generator/encoder_3/conv2d/kernel/Adam_1/Assign"
  input: "^generator/encoder_3/conv2d/kernel/Assign"
  input: "^generator/encoder_4/batch_normalization/beta/Adam/Assign"
  input: "^generator/encoder_4/batch_normalization/beta/Adam_1/Assign"
  input: "^generator/encoder_4/batch_normalization/beta/Assign"
  input: "^generator/encoder_4/batch_normalization/gamma/Adam/Assign"
  input: "^generator/encoder_4/batch_normalization/gamma/Adam_1/Assign"
  input: "^generator/encoder_4/batch_normalization/gamma/Assign"
  input: "^generator/encoder_4/batch_normalization/moving_mean/Assign"
  input: "^generator/encoder_4/batch_normalization/moving_variance/Assign"
  input: "^generator/encoder_4/conv2d/bias/Adam/Assign"
  input: "^generator/encoder_4/conv2d/bias/Adam_1/Assign"
  input: "^generator/encoder_4/conv2d/bias/Assign"
  input: "^generator/encoder_4/conv2d/kernel/Adam/Assign"
  input: "^generator/encoder_4/conv2d/kernel/Adam_1/Assign"
  input: "^generator/encoder_4/conv2d/kernel/Assign"
  input: "^generator/encoder_5/batch_normalization/beta/Adam/Assign"
  input: "^generator/encoder_5/batch_normalization/beta/Adam_1/Assign"
  input: "^generator/encoder_5/batch_normalization/beta/Assign"
  input: "^generator/encoder_5/batch_normalization/gamma/Adam/Assign"
  input: "^generator/encoder_5/batch_normalization/gamma/Adam_1/Assign"
  input: "^generator/encoder_5/batch_normalization/gamma/Assign"
  input: "^generator/encoder_5/batch_normalization/moving_mean/Assign"
  input: "^generator/encoder_5/batch_normalization/moving_variance/Assign"
  input: "^generator/encoder_5/conv2d/bias/Adam/Assign"
  input: "^generator/encoder_5/conv2d/bias/Adam_1/Assign"
  input: "^generator/encoder_5/conv2d/bias/Assign"
  input: "^generator/encoder_5/conv2d/kernel/Adam/Assign"
  input: "^generator/encoder_5/conv2d/kernel/Adam_1/Assign"
  input: "^generator/encoder_5/conv2d/kernel/Assign"
  input: "^generator/encoder_6/batch_normalization/beta/Adam/Assign"
  input: "^generator/encoder_6/batch_normalization/beta/Adam_1/Assign"
  input: "^generator/encoder_6/batch_normalization/beta/Assign"
  input: "^generator/encoder_6/batch_normalization/gamma/Adam/Assign"
  input: "^generator/encoder_6/batch_normalization/gamma/Adam_1/Assign"
  input: "^generator/encoder_6/batch_normalization/gamma/Assign"
  input: "^generator/encoder_6/batch_normalization/moving_mean/Assign"
  input: "^generator/encoder_6/batch_normalization/moving_variance/Assign"
  input: "^generator/encoder_6/conv2d/bias/Adam/Assign"
  input: "^generator/encoder_6/conv2d/bias/Adam_1/Assign"
  input: "^generator/encoder_6/conv2d/bias/Assign"
  input: "^generator/encoder_6/conv2d/kernel/Adam/Assign"
  input: "^generator/encoder_6/conv2d/kernel/Adam_1/Assign"
  input: "^generator/encoder_6/conv2d/kernel/Assign"
  input: "^generator/encoder_7/batch_normalization/beta/Adam/Assign"
  input: "^generator/encoder_7/batch_normalization/beta/Adam_1/Assign"
  input: "^generator/encoder_7/batch_normalization/beta/Assign"
  input: "^generator/encoder_7/batch_normalization/gamma/Adam/Assign"
  input: "^generator/encoder_7/batch_normalization/gamma/Adam_1/Assign"
  input: "^generator/encoder_7/batch_normalization/gamma/Assign"
  input: "^generator/encoder_7/batch_normalization/moving_mean/Assign"
  input: "^generator/encoder_7/batch_normalization/moving_variance/Assign"
  input: "^generator/encoder_7/conv2d/bias/Adam/Assign"
  input: "^generator/encoder_7/conv2d/bias/Adam_1/Assign"
  input: "^generator/encoder_7/conv2d/bias/Assign"
  input: "^generator/encoder_7/conv2d/kernel/Adam/Assign"
  input: "^generator/encoder_7/conv2d/kernel/Adam_1/Assign"
  input: "^generator/encoder_7/conv2d/kernel/Assign"
  input: "^generator/encoder_8/batch_normalization/beta/Adam/Assign"
  input: "^generator/encoder_8/batch_normalization/beta/Adam_1/Assign"
  input: "^generator/encoder_8/batch_normalization/beta/Assign"
  input: "^generator/encoder_8/batch_normalization/gamma/Adam/Assign"
  input: "^generator/encoder_8/batch_normalization/gamma/Adam_1/Assign"
  input: "^generator/encoder_8/batch_normalization/gamma/Assign"
  input: "^generator/encoder_8/batch_normalization/moving_mean/Assign"
  input: "^generator/encoder_8/batch_normalization/moving_variance/Assign"
  input: "^generator/encoder_8/conv2d/bias/Adam/Assign"
  input: "^generator/encoder_8/conv2d/bias/Adam_1/Assign"
  input: "^generator/encoder_8/conv2d/bias/Assign"
  input: "^generator/encoder_8/conv2d/kernel/Adam/Assign"
  input: "^generator/encoder_8/conv2d/kernel/Adam_1/Assign"
  input: "^generator/encoder_8/conv2d/kernel/Assign"
  input: "^generator_loss/Mean/ExponentialMovingAverage/Assign"
  input: "^generator_loss/Mean_1/ExponentialMovingAverage/Assign"
  input: "^generator_train/beta1_power/Assign"
  input: "^generator_train/beta2_power/Assign"
  input: "^global_step/Assign"
}
node {
  name: "init_1"
  op: "NoOp"
}
node {
  name: "init_all_tables"
  op: "NoOp"
}
node {
  name: "group_deps_1"
  op: "NoOp"
  input: "^init_1"
  input: "^init_all_tables"
}
node {
  name: "Merge/MergeSummary"
  op: "MergeSummary"
  input: "load_images/input_producer/fraction_of_32_full"
  input: "batch/fraction_of_32_full"
  input: "inputs_summary/inputs"
  input: "targets_summary/targets"
  input: "outputs_summary/outputs"
  input: "predict_real_summary/predict_real"
  input: "predict_fake_summary/predict_fake"
  input: "discriminator_loss_1"
  input: "generator_loss_GAN"
  input: "generator_loss_L1"
  input: "generator/encoder_1/conv2d/kernel/values"
  input: "generator/encoder_1/conv2d/bias/values"
  input: "generator/encoder_2/conv2d/kernel/values"
  input: "generator/encoder_2/conv2d/bias/values"
  input: "generator/encoder_2/batch_normalization/gamma/values"
  input: "generator/encoder_2/batch_normalization/beta/values"
  input: "generator/encoder_3/conv2d/kernel/values"
  input: "generator/encoder_3/conv2d/bias/values"
  input: "generator/encoder_3/batch_normalization/gamma/values"
  input: "generator/encoder_3/batch_normalization/beta/values"
  input: "generator/encoder_4/conv2d/kernel/values"
  input: "generator/encoder_4/conv2d/bias/values"
  input: "generator/encoder_4/batch_normalization/gamma/values"
  input: "generator/encoder_4/batch_normalization/beta/values"
  input: "generator/encoder_5/conv2d/kernel/values"
  input: "generator/encoder_5/conv2d/bias/values"
  input: "generator/encoder_5/batch_normalization/gamma/values"
  input: "generator/encoder_5/batch_normalization/beta/values"
  input: "generator/encoder_6/conv2d/kernel/values"
  input: "generator/encoder_6/conv2d/bias/values"
  input: "generator/encoder_6/batch_normalization/gamma/values"
  input: "generator/encoder_6/batch_normalization/beta/values"
  input: "generator/encoder_7/conv2d/kernel/values"
  input: "generator/encoder_7/conv2d/bias/values"
  input: "generator/encoder_7/batch_normalization/gamma/values"
  input: "generator/encoder_7/batch_normalization/beta/values"
  input: "generator/encoder_8/conv2d/kernel/values"
  input: "generator/encoder_8/conv2d/bias/values"
  input: "generator/encoder_8/batch_normalization/gamma/values"
  input: "generator/encoder_8/batch_normalization/beta/values"
  input: "generator/decoder_8/conv2d_transpose/kernel/values"
  input: "generator/decoder_8/conv2d_transpose/bias/values"
  input: "generator/decoder_8/batch_normalization/gamma/values"
  input: "generator/decoder_8/batch_normalization/beta/values"
  input: "generator/decoder_7/conv2d_transpose/kernel/values"
  input: "generator/decoder_7/conv2d_transpose/bias/values"
  input: "generator/decoder_7/batch_normalization/gamma/values"
  input: "generator/decoder_7/batch_normalization/beta/values"
  input: "generator/decoder_6/conv2d_transpose/kernel/values"
  input: "generator/decoder_6/conv2d_transpose/bias/values"
  input: "generator/decoder_6/batch_normalization/gamma/values"
  input: "generator/decoder_6/batch_normalization/beta/values"
  input: "generator/decoder_5/conv2d_transpose/kernel/values"
  input: "generator/decoder_5/conv2d_transpose/bias/values"
  input: "generator/decoder_5/batch_normalization/gamma/values"
  input: "generator/decoder_5/batch_normalization/beta/values"
  input: "generator/decoder_4/conv2d_transpose/kernel/values"
  input: "generator/decoder_4/conv2d_transpose/bias/values"
  input: "generator/decoder_4/batch_normalization/gamma/values"
  input: "generator/decoder_4/batch_normalization/beta/values"
  input: "generator/decoder_3/conv2d_transpose/kernel/values"
  input: "generator/decoder_3/conv2d_transpose/bias/values"
  input: "generator/decoder_3/batch_normalization/gamma/values"
  input: "generator/decoder_3/batch_normalization/beta/values"
  input: "generator/decoder_2/conv2d_transpose/kernel/values"
  input: "generator/decoder_2/conv2d_transpose/bias/values"
  input: "generator/decoder_2/batch_normalization/gamma/values"
  input: "generator/decoder_2/batch_normalization/beta/values"
  input: "generator/decoder_1/conv2d_transpose/kernel/values"
  input: "generator/decoder_1/conv2d_transpose/bias/values"
  input: "discriminator/layer_1/conv2d/kernel/values"
  input: "discriminator/layer_1/conv2d/bias/values"
  input: "discriminator/layer_2/conv2d/kernel/values"
  input: "discriminator/layer_2/conv2d/bias/values"
  input: "discriminator/layer_2/batch_normalization/gamma/values"
  input: "discriminator/layer_2/batch_normalization/beta/values"
  input: "discriminator/layer_3/conv2d/kernel/values"
  input: "discriminator/layer_3/conv2d/bias/values"
  input: "discriminator/layer_3/batch_normalization/gamma/values"
  input: "discriminator/layer_3/batch_normalization/beta/values"
  input: "discriminator/layer_4/conv2d/kernel/values"
  input: "discriminator/layer_4/conv2d/bias/values"
  input: "discriminator/layer_4/batch_normalization/gamma/values"
  input: "discriminator/layer_4/batch_normalization/beta/values"
  input: "discriminator/layer_5/conv2d/kernel/values"
  input: "discriminator/layer_5/conv2d/bias/values"
  input: "discriminator/layer_1/conv2d/kernel/gradients"
  input: "discriminator/layer_1/conv2d/bias/gradients"
  input: "discriminator/layer_2/conv2d/kernel/gradients"
  input: "discriminator/layer_2/conv2d/bias/gradients"
  input: "discriminator/layer_2/batch_normalization/gamma/gradients"
  input: "discriminator/layer_2/batch_normalization/beta/gradients"
  input: "discriminator/layer_3/conv2d/kernel/gradients"
  input: "discriminator/layer_3/conv2d/bias/gradients"
  input: "discriminator/layer_3/batch_normalization/gamma/gradients"
  input: "discriminator/layer_3/batch_normalization/beta/gradients"
  input: "discriminator/layer_4/conv2d/kernel/gradients"
  input: "discriminator/layer_4/conv2d/bias/gradients"
  input: "discriminator/layer_4/batch_normalization/gamma/gradients"
  input: "discriminator/layer_4/batch_normalization/beta/gradients"
  input: "discriminator/layer_5/conv2d/kernel/gradients"
  input: "discriminator/layer_5/conv2d/bias/gradients"
  input: "generator/encoder_1/conv2d/kernel/gradients"
  input: "generator/encoder_1/conv2d/bias/gradients"
  input: "generator/encoder_2/conv2d/kernel/gradients"
  input: "generator/encoder_2/conv2d/bias/gradients"
  input: "generator/encoder_2/batch_normalization/gamma/gradients"
  input: "generator/encoder_2/batch_normalization/beta/gradients"
  input: "generator/encoder_3/conv2d/kernel/gradients"
  input: "generator/encoder_3/conv2d/bias/gradients"
  input: "generator/encoder_3/batch_normalization/gamma/gradients"
  input: "generator/encoder_3/batch_normalization/beta/gradients"
  input: "generator/encoder_4/conv2d/kernel/gradients"
  input: "generator/encoder_4/conv2d/bias/gradients"
  input: "generator/encoder_4/batch_normalization/gamma/gradients"
  input: "generator/encoder_4/batch_normalization/beta/gradients"
  input: "generator/encoder_5/conv2d/kernel/gradients"
  input: "generator/encoder_5/conv2d/bias/gradients"
  input: "generator/encoder_5/batch_normalization/gamma/gradients"
  input: "generator/encoder_5/batch_normalization/beta/gradients"
  input: "generator/encoder_6/conv2d/kernel/gradients"
  input: "generator/encoder_6/conv2d/bias/gradients"
  input: "generator/encoder_6/batch_normalization/gamma/gradients"
  input: "generator/encoder_6/batch_normalization/beta/gradients"
  input: "generator/encoder_7/conv2d/kernel/gradients"
  input: "generator/encoder_7/conv2d/bias/gradients"
  input: "generator/encoder_7/batch_normalization/gamma/gradients"
  input: "generator/encoder_7/batch_normalization/beta/gradients"
  input: "generator/encoder_8/conv2d/kernel/gradients"
  input: "generator/encoder_8/conv2d/bias/gradients"
  input: "generator/encoder_8/batch_normalization/gamma/gradients"
  input: "generator/encoder_8/batch_normalization/beta/gradients"
  input: "generator/decoder_8/conv2d_transpose/kernel/gradients"
  input: "generator/decoder_8/conv2d_transpose/bias/gradients"
  input: "generator/decoder_8/batch_normalization/gamma/gradients"
  input: "generator/decoder_8/batch_normalization/beta/gradients"
  input: "generator/decoder_7/conv2d_transpose/kernel/gradients"
  input: "generator/decoder_7/conv2d_transpose/bias/gradients"
  input: "generator/decoder_7/batch_normalization/gamma/gradients"
  input: "generator/decoder_7/batch_normalization/beta/gradients"
  input: "generator/decoder_6/conv2d_transpose/kernel/gradients"
  input: "generator/decoder_6/conv2d_transpose/bias/gradients"
  input: "generator/decoder_6/batch_normalization/gamma/gradients"
  input: "generator/decoder_6/batch_normalization/beta/gradients"
  input: "generator/decoder_5/conv2d_transpose/kernel/gradients"
  input: "generator/decoder_5/conv2d_transpose/bias/gradients"
  input: "generator/decoder_5/batch_normalization/gamma/gradients"
  input: "generator/decoder_5/batch_normalization/beta/gradients"
  input: "generator/decoder_4/conv2d_transpose/kernel/gradients"
  input: "generator/decoder_4/conv2d_transpose/bias/gradients"
  input: "generator/decoder_4/batch_normalization/gamma/gradients"
  input: "generator/decoder_4/batch_normalization/beta/gradients"
  input: "generator/decoder_3/conv2d_transpose/kernel/gradients"
  input: "generator/decoder_3/conv2d_transpose/bias/gradients"
  input: "generator/decoder_3/batch_normalization/gamma/gradients"
  input: "generator/decoder_3/batch_normalization/beta/gradients"
  input: "generator/decoder_2/conv2d_transpose/kernel/gradients"
  input: "generator/decoder_2/conv2d_transpose/bias/gradients"
  input: "generator/decoder_2/batch_normalization/gamma/gradients"
  input: "generator/decoder_2/batch_normalization/beta/gradients"
  input: "generator/decoder_1/conv2d_transpose/kernel/gradients"
  input: "generator/decoder_1/conv2d_transpose/bias/gradients"
  attr {
    key: "N"
    value {
      i: 162
    }
  }
  attr {
    key: "_output_shapes"
    value {
      list {
        shape {
        }
      }
    }
  }
}
versions {
  producer: 26
}
